1.pothole_detection/Pothole_android/android/app/src/main/assets/Retrain90.tflite (tflite, 121972 bytes, 120 tensors)

model/tf.math.add/Add/y f4 [7]
0	0x3f8f8fb8	1.1215734
1	0x401c1e61	2.4393542
2	0x3fdc4b8c	1.7210555
3	0x3fd8ace0	1.6927757
4	0x3fff1dce	1.9930971
5	0x3fa71b53	1.3055214
6	0x3fa8d498	1.3189878

model/tf.math.add_1/Add/y f4 [8]
0	0x3f42dac7	0.7611508
1	0x3dc11e30	0.09429586
2	0x3db9c068	0.09069902
3	0x3fb146c0	1.3849716
4	0x3fc17464	1.5113645
5	0x3ec18644	0.3779775
6	0xbe60fa60	-0.2197051
7	0x3f9f48ec	1.2444129

model/tf.math.add_2/Add/y f4 [7]
0	0x3fd43960	1.658001
1	0x3e45a092	0.19299534
2	0xbef5743e	-0.47940248
3	0x401066b6	2.256269
4	0x3f4d07f4	0.8009026
5	0xbf003ae4	-0.5008986
6	0x3f22c8c9	0.63587624

model/tf.math.add_3/Add/y f4 [8]
0	0x3f59f9c4	0.8514674
1	0xbeecd1c8	-0.462538
2	0x3f6f5ad4	0.9349797
3	0x3dbcc594	0.092173725
4	0x3f979167	1.1841248
5	0xbfd3490c	-1.6506667
6	0xbd540988	-0.051766902
7	0x3f4f370f	0.8094339

model/tf.math.add_4/Add/y f4 [7]
0	0xbeaf7712	-0.3427053
1	0x3ed41ef4	0.41429865
2	0x3f08e23b	0.534702
3	0x3f510454	0.8164723
4	0x3ead906c	0.33899248
5	0x3d4344a2	0.047672875
6	0x3f88a34e	1.0674837

model/tf.math.add_6/Add/y f4 [8]
0	0x3f0b860f	0.5450143
1	0x3fbba8b3	1.4660858
2	0x3f8f8141	1.121132
3	0xbfa5e197	-1.295947
4	0x3f30e2ef	0.69096273
5	0x3f204804	0.6260989
6	0xc0090376	-2.1408362
7	0x3f86ddc9	1.0536433

model/tf.math.add_7/Add/y f4 [9]
0	0x3d193430	0.037403286
1	0xbeeb326e	-0.45936912
2	0x3ff43ebf	1.9081649
3	0x3f1988a2	0.5997411
4	0xbd767488	-0.060169727
5	0x3f8203b6	1.0157382
6	0xbe99cebe	-0.30040544
7	0x3f21a448	0.631413
8	0xbdb3fb80	-0.08788204

model/tf.math.add_8/Add/y f4 [9]
0	0x3de99ff0	0.11407459
1	0x3f1b74b4	0.6072495
2	0x3f3f5a8a	0.74747527
3	0x3f4a9388	0.79131365
4	0x3f5a5b7b	0.8529584
5	0x3e790a3a	0.24320307
6	0x3f464b02	0.774582
7	0xbeb51954	-0.35370886
8	0x3ef2784e	0.4735741

model/tf.math.add_16/Add/y f4 [9]
0	0x3f80e19c	1.006885
1	0xbde651c4	-0.11246064
2	0x3f1e8bce	0.61932075
3	0xbf976b8d	-1.1829697
4	0x3f3a5d46	0.72798574
5	0x3dbe89c8	0.093036234
6	0xbf55634c	-0.8335464
7	0x3f17f554	0.59358716
8	0x3e8ec8fb	0.2788771

model/tf.math.add_9/Add/y f4 [9]
0	0x3f1c9193	0.6115963
1	0x3ed3d980	0.41376877
2	0x3ef5b051	0.4798608
3	0x3f46c8d6	0.776502
4	0x3f898907	1.0744942
5	0x3ee8b532	0.4545074
6	0x3e3367b6	0.17520031
7	0x3fb3e5d2	1.405451
8	0x3d9cdad0	0.07658923

model/tf.math.add_10/Add/y f4 [9]
0	0xbe216e3c	-0.15764707
1	0xbf50cc5a	-0.81561816
2	0x3cb7f548	0.022455826
3	0xbfb20c88	-1.3910074
4	0x3f3819e3	0.719145
5	0xbee1b567	-0.44083712
6	0x3faa806f	1.3320445
7	0xbee604b4	-0.44925463
8	0x3f1a0970	0.6017065

model/tf.math.add_11/Add/y f4 [9]
0	0xbce94228	-0.028473929
1	0x3f2da4a8	0.6782937
2	0x3f9861d3	1.1904854
3	0x3e6b9407	0.23005687
4	0xbefc1d46	-0.49241084
5	0x3f4a0cc6	0.7892574
6	0x3e8d6f20	0.27623844
7	0x3e739494	0.23787147
8	0x3f6a686e	0.915656

model/tf.math.add_13/Add/y f4 [8]
0	0x3ffa8bc4	1.9573903
1	0xbeeba3c5	-0.46023384
2	0x3f7b310e	0.98121727
3	0xbe7a9058	-0.24469125
4	0x3f8a7888	1.0818033
5	0x3e522e1d	0.20525403
6	0x3fb26e1f	1.3939856
7	0x3efc941c	0.49331748

model/tf.math.add_14/Add/y f4 [9]
0	0x3edc0597	0.42973015
1	0x3d5f0548	0.054448396
2	0x3f151a2b	0.58243054
3	0x3f8b9b16	1.0906703
4	0x3fab7fdb	1.3398393
5	0x3fa3149b	1.2740663
6	0x3d6c7977	0.057733025
7	0x3e9c75fe	0.3055877
8	0x3fceb1c1	1.6147996

model/tf.math.add_17/Add/y f4 [9]
0	0x3e0502bb	0.12989323
1	0x3f49474a	0.78624403
2	0x3faabbec	1.3338599
3	0xbf288478	-0.6582713
4	0x3ef6e691	0.48222783
5	0xbf081095	-0.531503
6	0x3f577cbe	0.84174716
7	0x3fc86ce9	1.5658237
8	0x3f86f598	1.0543699

model/tf.math.add_18/Add/y f4 [9]
0	0x3f20d631	0.6282683
1	0x3f109863	0.56482524
2	0xbf4f7e67	-0.8105225
3	0xbce9ede0	-0.02855581
4	0x3f30efff	0.69116205
5	0xbecf663c	-0.40507686
6	0xc002901f	-2.0400465
7	0xbfc1a014	-1.5126977
8	0xbda9fd34	-0.08300248

model/tf.math.add_19/Add/y f4 [10]
0	0x3f518a7d	0.8185194
1	0xbf4590ed	-0.77174264
2	0x3ebff001	0.37487796
3	0xbe7e1010	-0.24810815
4	0xbdaef9a8	-0.08543712
5	0x3c9c14b0	0.019052833
6	0x3f0be70c	0.54649425
7	0x3f1814c9	0.59406716
8	0x3f8591cc	1.0435119
9	0x3ca2acf0	0.019857854

model/tf.math.add_20/Add/y f4 [9]
0	0x3e9cd3d1	0.30630353
1	0xbd8819a0	-0.066455126
2	0x3d948318	0.07251567
3	0x3f3011a1	0.687769
4	0x3ea23dd1	0.31687787
5	0x3f41a999	0.7564941
6	0x3ecb728c	0.3973583
7	0xbf557ec9	-0.83396584
8	0x3fa48660	1.2853508

model/tf.math.add_21/Add/y f4 [10]
0	0x3ea5dcf3	0.32395133
1	0x3e7a9c8e	0.24473783
2	0x3eb0ccea	0.34531337
3	0x3f5034c5	0.8133052
4	0x3eadbe7c	0.3393439
5	0x3eb3a683	0.35087976
6	0x3f0143c1	0.5049401
7	0x3d928ffa	0.071563676
8	0xbf047146	-0.5173534
9	0x3ef3fc6e	0.47653526

model/tf.math.add_23/Add/y f4 [9]
0	0x3f7485d9	0.95516735
1	0xbd2d73fc	-0.04234694
2	0x3fb6123b	1.4224313
3	0x3f004b85	0.50115234
4	0x3f4d3ea4	0.80173707
5	0xbeb36fb2	-0.35046154
6	0x3e582d62	0.21111062
7	0x3e5648a9	0.20926155
8	0xbf85eb7a	-1.0462487

model/tf.math.add_24/Add/y f4 [10]
0	0x3f28233e	0.65678775
1	0x3f88188a	1.0632489
2	0xbdd8cb9e	-0.10585712
3	0xbe5004d2	-0.20314339
4	0x3f1edb1c	0.62053084
5	0x3e48179e	0.19540259
6	0xbebc8c50	-0.368258
7	0x3f077b4e	0.52922523
8	0x3f382849	0.7193647
9	0x3dbd9a64	0.09257963

model/tf.math.add_26/Add/y f4 [9]
0	0x3f297d7b	0.66207093
1	0x3f519fe8	0.8188462
2	0xbf7d1cfe	-0.98872364
3	0xbe71c352	-0.23609665
4	0x3f46a560	0.7759609
5	0x3da07940	0.078356266
6	0x3e944bfe	0.28964227
7	0x3f6bd39e	0.9211978
8	0x3f51e339	0.8198734

model/tf.math.add_27/Add/y f4 [10]
0	0x3e907226	0.28212088
1	0x3f970348	1.1797876
2	0xbd13a14c	-0.036042497
3	0x3ecdca30	0.4019332
4	0x3dce61f1	0.100772746
5	0xbe4e8e54	-0.20171481
6	0xbe8774c5	-0.26456276
7	0xbe9999e8	-0.30000234
8	0x3e03cf69	0.1287209
9	0xbdbb6012	-0.09149183

model/tf.math.add_29/Add/y f4 [9]
0	0x3e4e1a12	0.20127133
1	0xbea03202	-0.31288153
2	0x3ecf355e	0.40470403
3	0xbdbef3cc	-0.09323844
4	0x3f7c5506	0.98567235
5	0x3f606d7c	0.8766706
6	0xbef29817	-0.4738166
7	0xbf0c722d	-0.5486172
8	0xbeecace4	-0.46225655

model/tf.math.add_30/Add/y f4 [9]
0	0xbee18a8a	-0.4405101
1	0x3fd9bc29	1.7010547
2	0x3f2298a8	0.63514185
3	0x3efab8c7	0.489691
4	0xbcec4734	-0.028842546
5	0x3f5dc5a4	0.866297
6	0x3e14a3a6	0.14515552
7	0x3e126550	0.1429646
8	0x3eb04957	0.34430954

model/tf.math.add_31/Add/y f4 [9]
0	0xbe27e971	-0.16397645
1	0xbe4c039e	-0.19923255
2	0x3dbeb25e	0.093113646
3	0x3e68b2fb	0.22724526
4	0x3d433c94	0.047665194
5	0x3e16276d	0.14663477
6	0xbec82b37	-0.3909547
7	0x3c7a47d0	0.0152759105
8	0x3d0b80f7	0.034058537

model/tf.math.add_32/Add/y f4 [11]
0	0x3f11ac7a	0.56903803
1	0xbeb780aa	-0.3584035
2	0x3eb006e6	0.34380263
3	0xbe228566	-0.158712
4	0x3dd0b826	0.101913735
5	0x3bbc5498	0.005747389
6	0x3ed584b7	0.41702816
7	0xbf032c57	-0.5123953
8	0x3db08946	0.08619933
9	0xbe6ec27c	-0.23316377
10	0xbeefcf04	-0.46837628

model/tf.math.add_33/Add/y f4 [9]
0	0x3f59e52f	0.8511533
1	0x3e801c5e	0.25021642
2	0xbd275aea	-0.040858187
3	0x3f1dbb05	0.61613494
4	0x3d208c5a	0.03919635
5	0x3e048781	0.12942316
6	0x3db11fc8	0.0864864
7	0x3ea0f4a9	0.3143666
8	0xbeabb6e5	-0.33537975

model/tf.math.add_34/Add/y f4 [11]
0	0x3e3ebdc0	0.18627071
1	0x3f02bd72	0.5107032
2	0xbb61dd08	-0.003446402
3	0x3f92fdac	1.1483665
4	0x3dae93f0	0.085243106
5	0x3f3c3f3a	0.73533976
6	0x3fa06f6f	1.2534007
7	0x3e2e63f1	0.17030312
8	0xbd699418	-0.057026
9	0x3f80b948	1.0056543
10	0xbe41e75a	-0.1893591

model/tf.math.add_36/Add/y f4 [9]
0	0x3eadd0d6	0.33948392
1	0x3e1deb10	0.154217
2	0xbebe8178	-0.37208152
3	0xbc476b90	-0.012171641
4	0x3d8601ec	0.06543335
5	0x3e09cce9	0.13457073
6	0xbe29a899	-0.16568221
7	0xbdc9f234	-0.0986065
8	0xbdd7a017	-0.105285816

model/tf.math.add_37/Add/y f4 [9]
0	0x3ebedd0f	0.3727803
1	0xbd10a097	-0.0353094
2	0xbe725cac	-0.23668164
3	0xbdced3f0	-0.100990176
4	0x3f74b2df	0.95585436
5	0x3f05365c	0.5203607
6	0xbd14ae2c	-0.036298916
7	0x3f788271	0.9707404
8	0xbf1666ae	-0.58750427

model/tf.math.add_38/Add/y f4 [9]
0	0x3f0d9567	0.55306095
1	0xbe2e65d6	-0.17031035
2	0x3f02c930	0.5108824
3	0x3e995b1c	0.29952323
4	0x3d787e80	0.060667515
5	0x3e1d5dc8	0.15367806
6	0x3d08ecb5	0.033428866
7	0x3e1f98a2	0.15585569
8	0x3ef38c45	0.47567955

model/tf.math.add_39/Add/y f4 [9]
0	0x3fac5d36	1.3465946
1	0xbfa1c3d7	-1.263789
2	0xbfbcc6f3	-1.4748214
3	0x3f117f0d	0.5683449
4	0x3d0debb0	0.034648597
5	0xbfb6c435	-1.4278628
6	0x3f8c307d	1.0952297
7	0x3edfc9ae	0.43708557
8	0xbf1ea332	-0.61967766

model/tf.math.add_40/Add/y f4 [9]
0	0x3f1c4ff2	0.61059487
1	0xbf35cc62	-0.7101499
2	0xbe4c9c5c	-0.19981521
3	0x3e37d58c	0.17952555
4	0x3e4b7ca6	0.19871768
5	0x3efb857a	0.49125272
6	0x3ec1af46	0.37829036
7	0xbe39dbb8	-0.18150222
8	0x3f6724f4	0.9029076

model/tf.math.add_41/Add/y f4 [9]
0	0xbf15afc4	-0.5847132
1	0x3ec21939	0.37909868
2	0xbc97a588	-0.018511549
3	0x3e6981c5	0.2280341
4	0xbdd241ec	-0.1026648
5	0xbee6def0	-0.45091963
6	0x3e2a7c7d	0.16649051
7	0x3f01f76d	0.50768167
8	0xbf2219e1	-0.6332074

model/tf.math.add_42/Add/y f4 [9]
0	0x3d0e30e0	0.03471458
1	0xbe695746	-0.22787198
2	0xbe2780e6	-0.16357765
3	0xbecea003	-0.40356454
4	0x3ebbcd06	0.36679858
5	0x3e8504aa	0.2598012
6	0xbee5c73c	-0.44878566
7	0xbea57998	-0.3231933
8	0x3e4d0055	0.20019658

model/tf.math.add_43/Add/y f4 [8]
0	0x3ec0d571	0.37662843
1	0x3f50fe33	0.8163788
2	0x3f44433b	0.76665086
3	0xbe9eda62	-0.31025988
4	0x3f633ca5	0.8876441
5	0x3e445a9b	0.19175188
6	0xbe27dcc6	-0.16392812
7	0xbe74fb38	-0.23923957

model/tf.math.add_44/Add/y f4 [9]
0	0xbe517254	-0.20453769
1	0x3e8dce64	0.27696526
2	0x3f2bb1d5	0.67068225
3	0x3f68954e	0.9085282
4	0x3e092e0a	0.13396469
5	0x3e37d6fa	0.17953101
6	0xbe3e5e98	-0.18590772
7	0x3f55c75e	0.83507335
8	0x3f7efce9	0.9960466

model/tf.math.add_45/Add/y f4 [9]
0	0xbee16197	-0.44019768
1	0x3f381228	0.71902704
2	0x3ff45e4c	1.9091277
3	0x3f5f68a3	0.8726904
4	0xbf52fec6	-0.82420003
5	0x3f482b7c	0.7819135
6	0x3f659a72	0.8968879
7	0x3fb6ad62	1.4271662
8	0x403600f0	2.8438072

model/tf.math.add_46/Add/y f4 [9]
0	0xbda3ce3c	-0.079983205
1	0x3f862281	1.047928
2	0xbf36d539	-0.714191
3	0x3dde5328	0.108557045
4	0x3cd43928	0.02590616
5	0x3d7eb040	0.062179804
6	0xbf2f0b46	-0.68376577
7	0x3d660d70	0.05616516
8	0x3e8ba390	0.27273226

model/tf.math.add_47/Add/y f4 [8]
0	0xbe5f4b9e	-0.2180619
1	0xbe60cc38	-0.21952903
2	0xbf257a97	-0.6464018
3	0xbf4c0f8a	-0.7971121
4	0xbe69d158	-0.22833765
5	0xbef36053	-0.47534427
6	0xbd600198	-0.05468902
7	0xbea71918	-0.32636333

model/tf.math.add_48/Add/y f4 [8]
0	0xbec82ed4	-0.39098227
1	0xbdb659f8	-0.08903879
2	0xbf300f15	-0.68773013
3	0xbe10bd68	-0.14134753
4	0xbeb251bd	-0.34827986
5	0xbe9ac599	-0.3022888
6	0xbdd65e4c	-0.104672045
7	0xbf16cac0	-0.5890312

model/tf.math.add_49/Add/y f4 [8]
0	0x3f0ef4a9	0.5584207
1	0x3e978516	0.29593724
2	0x3e901cb4	0.281469
3	0x3f038668	0.5137696
4	0x3d696fda	0.056991436
5	0x3ea0fd3e	0.31443208
6	0x3e7d22e0	0.24720335
7	0x3e67edcc	0.22649306

model/tf.math.add_50/Add/y f4 [8]
0	0x3f1f8134	0.62306523
1	0x3f1bf6ba	0.6092335
2	0x3f929ee6	1.1454742
3	0xbb769c00	-0.0037629604
4	0x3f8de750	1.1086216
5	0x3f0a8d82	0.54122174
6	0xbea2e06f	-0.31811854
7	0x3f0990fd	0.5373686

model/tf.math.add_51/Add/y f4 [8]
0	0xbf48df9f	-0.7846622
1	0xbebb08ac	-0.36530054
2	0xbeb47852	-0.35248047
3	0x3ed66f82	0.4188195
4	0xbe1bab1e	-0.15201995
5	0xbf8eef57	-1.1166791
6	0xbf99fb36	-1.2029788
7	0x3fa3d767	1.280011

model/tf.math.add_66/Add/y f4 [18]
0	0x3ec4a000	0.3840332
1	0x3e31a000	0.17346191
2	0x3f26e000	0.65185547
3	0x3f9f6000	1.2451172
4	0xc125e000	-10.3671875
5	0x40860000	4.1875
6	0x3ed14000	0.4086914
7	0x3e646000	0.22302246
8	0x3e65a000	0.22424316
9	0x3ec82000	0.39086914
10	0xc1282000	-10.5078125
11	0x407e8000	3.9765625
12	0x3ecc8000	0.39941406
13	0x3e932000	0.28735352
14	0x3e6b2000	0.22961426
15	0xbd9dc000	-0.07702637
16	0xc1278000	-10.46875
17	0x407f0000	3.984375

model/tf.math.add_52/Add/y f4 [8]
0	0xbcff3bc0	-0.03115642
1	0x3de4c7f4	0.111709505
2	0x3f4545e0	0.77059746
3	0x3e929efe	0.28636926
4	0x3f889088	1.0669107
5	0x3ee74cb6	0.45175713
6	0xbe1427ac	-0.14468259
7	0xbe9df288	-0.308491

model/tf.math.add_53/Add/y f4 [9]
0	0xbf3b0e63	-0.7306883
1	0xbeba72ab	-0.3641561
2	0xbedd9445	-0.43277183
3	0xbf245302	-0.6418916
4	0xbceefc9c	-0.029173188
5	0xbe9b4beb	-0.30331358
6	0xbd2bc318	-0.041934103
7	0xbc19acd0	-0.009379581
8	0x3dd7a350	0.10529196

model/tf.math.add_54/Add/y f4 [9]
0	0xbdb8b308	-0.090185225
1	0x3de40faa	0.111358
2	0xbe7b21e4	-0.24524647
3	0xbd2a3768	-0.041556746
4	0x3d984ddc	0.074367255
5	0xbf17abbe	-0.5924643
6	0xbe2b3a73	-0.16721515
7	0xbd77b358	-0.06047377
8	0xbe3f64bf	-0.18690775

model/tf.math.add_55/Add/y f4 [8]
0	0x3bc95080	0.0061436296
1	0x3e8ac616	0.27104253
2	0x3da2dd4a	0.07952364
3	0xba5b0280	-0.00083545595
4	0xbcc6c6e0	-0.024264753
5	0x3edb031a	0.42775804
6	0x3e21a889	0.15786947
7	0x3eb0b8aa	0.34515887

model/tf.math.add_56/Add/y f4 [9]
0	0x3d818fc0	0.06326246
1	0x3e6e9adf	0.23301266
2	0x3d077940	0.033074617
3	0x3caf2160	0.02137822
4	0xbe0618fb	-0.13095467
5	0xbd26fe92	-0.04077012
6	0x3e35aefe	0.17742535
7	0xbe82e0e0	-0.2556219
8	0xbe90e7cc	-0.28301847

model/tf.math.add_57/Add/y f4 [8]
0	0xbe2d9801	-0.16952516
1	0xbeeefbaf	-0.46676394
2	0x3e63a0ee	0.22229359
3	0x3ed763c8	0.42068315
4	0x3e02cc68	0.12773287
5	0xbef96999	-0.48713377
6	0xbf8e2fea	-1.1108372
7	0xbef330f0	-0.47498274

model/tf.math.add_65/Add/y f4 [18]
0	0xbdd3c000	-0.103393555
1	0xbcf88000	-0.030334473
2	0xbdcf2000	-0.101135254
3	0x3f08e000	0.53466797
4	0xc1122000	-9.1328125
5	0x4083a000	4.1132812
6	0xbdd24000	-0.10266113
7	0xbce4e000	-0.027938843
8	0x3d186000	0.037200928
9	0xbc820000	-0.01586914
10	0xc111e000	-9.1171875
11	0x40854000	4.1640625
12	0xbdc6a000	-0.09698486
13	0xbcbb8000	-0.022888184
14	0x3e292000	0.16516113
15	0xbeaf6000	-0.3425293
16	0xc1124000	-9.140625
17	0x4080c000	4.0234375

model/tf.math.add_58/Add/y f4 [9]
0	0x3eb147b1	0.3462501
1	0x3dc9a168	0.09845239
2	0x3f07b9a3	0.53017634
3	0x3f224866	0.6339172
4	0x3ebe36ab	0.37151083
5	0x3ee5b74e	0.44866413
6	0x3f03e076	0.51514375
7	0x3ec5077e	0.3848228
8	0x3e8af476	0.27139634

model/tf.math.add_59/Add/y f4 [9]
0	0xbecb64b8	-0.3972528
1	0xbf07c6f2	-0.5303794
2	0x3dcd3b5c	0.100210875
3	0xbf53dd20	-0.82759285
4	0x3e974533	0.29544982
5	0x3e65f6ac	0.22457379
6	0xbda86704	-0.08222774
7	0x3dc63100	0.09677315
8	0xbebfb38b	-0.37441668

model/tf.math.add_60/Add/y f4 [9]
0	0x3d6fd286	0.05855038
1	0xbd1a8bd0	-0.03773099
2	0xbc91d8a8	-0.017803505
3	0xbda1a2cc	-0.07892379
4	0xbd07d0a8	-0.033157974
5	0xbf09b112	-0.5378581
6	0xbd83cd86	-0.06435685
7	0xbe648db8	-0.22319686
8	0x3eff9378	0.49917197

model/tf.math.add_61/Add/y f4 [9]
0	0x3ef05be8	0.4694512
1	0x3f69db86	0.9135059
2	0x3d8d1203	0.06888201
3	0x3fa50dc5	1.2894827
4	0x3ee4ba96	0.44673604
5	0x3e881716	0.26580113
6	0x3fabf29c	1.3433414
7	0x3f0669f4	0.5250542
8	0x3efa0150	0.48829126

model/tf.math.add_62/Add/y f4 [9]
0	0x3f68a7ca	0.90881026
1	0x3f2132b8	0.62968016
2	0x3f1251f7	0.5715632
3	0x3efa0b94	0.48836958
4	0x3e71f352	0.23627976
5	0x3e5216ae	0.20516464
6	0x3f71a97b	0.9439923
7	0x3e683c12	0.22679165
8	0x3eb6405d	0.3559598

model/tf.math.add_63/Add/y f4 [9]
0	0x3f981510	1.1881428
1	0x3fe8666d	1.8156258
2	0x3f827896	1.019305
3	0xbe51bc67	-0.20482026
4	0x3f8d5416	1.1041286
5	0xbd5d57b0	-0.054038703
6	0x3f06332a	0.5242182
7	0x3f72120d	0.94558793
8	0xbf90b115	-1.1304041

model/tf.math.add_64/Add/y f4 [18]
0	0xbd30c000	-0.043151855
1	0x3db24000	0.08703613
2	0x3dd80000	0.10546875
3	0x3efdc000	0.49560547
4	0xc0fea000	-7.9570312
5	0x40826000	4.0742188
6	0xbd280000	-0.041015625
7	0x3e170000	0.14746094
8	0x3f048000	0.5175781
9	0xbec16000	-0.37768555
10	0xc0fe4000	-7.9453125
11	0x40848000	4.140625
12	0xbd926000	-0.07147217
13	0x3e066000	0.13122559
14	0xbecb0000	-0.39648438
15	0xbe1a0000	-0.15039062
16	0xc0fb4000	-7.8515625
17	0x40832000	4.0976562

model/conv2d/Conv2D f4 [7, 6, 6, 3]
0	0x3bc0e223	0.0058863326
1	0x3ce089c5	0.027409444
2	0x3e182776	0.14858803
3	0x3c9ae5c7	0.018908395
4	0x3e336096	0.17517313
5	0x3e8084c0	0.2510128
6	0x3dbe59d9	0.09294481
7	0x3ec0911a	0.37610704
8	0x3f0fd181	0.5617905
9	0x3e0033b7	0.12519728
10	0x3ed28129	0.41114166
11	0x3f206268	0.62650156
12	0x3e32d987	0.17465793
13	0x3eb72d06	0.35776538
14	0x3f06f47d	0.5271681
15	0x3e9fc056	0.31201428
16	0x3e9dda1e	0.30830473
17	0x3eba7266	0.36415404
18	0xbd0deb4a	-0.034648217
19	0x3d035e14	0.03207214
20	0xbcdb7930	-0.026791185
21	0x3d8961c4	0.067081004
22	0xbd32d987	-0.04366448
23	0x3c86526a	0.01639672
24	0x3e1ba2dd	0.15198846
25	0x3e4586ab	0.19289653
26	0x3e8cc228	0.2749188
27	0x3e6bef14	0.2304042
28	0x3e85cb5b	0.2613171
29	0x3f103d8e	0.56343925
30	0x3e0946c1	0.13405897
31	0x3eb4bfbe	0.35302538
32	0x3efa7ec0	0.48924828
33	0x3e544c5d	0.20732255
34	0x3eba8d69	0.36436012
35	0x3e70ffa9	0.23535027
36	0xbe64f847	-0.22360335
37	0xbe2a8392	-0.16651753
38	0xbe63120f	-0.22174858
39	0xbe107394	-0.1410659
40	0xbd2449db	-0.040109497
41	0xbdd5757f	-0.10422801
42	0x3d041b29	0.032252464
43	0x3e55ab86	0.20866212
44	0x3e0db543	0.13838677
45	0x3e4679c7	0.19382392
46	0x3eb92e41	0.361681
47	0x3e8a1eda	0.26976663
48	0x3e58bae0	0.21165037
49	0x3e866d6e	0.26255363
50	0x3e9bbde0	0.304183
51	0x3e815cd9	0.2526615
52	0x3e4c4772	0.19949129
53	0x3db8dd37	0.090265684
54	0xbcd09af1	-0.025464507
55	0x3dbf67f8	0.09346002
56	0xbdba7266	-0.09103851
57	0xbb8d9a40	-0.0043213665
58	0xbcd0ebfa	-0.025503147
59	0x3b9d380b	0.0047979406
60	0x3da5fa0c	0.08104333
61	0x3d9bbde0	0.07604575
62	0x3dfab4c6	0.12241511
63	0x3e41ba3c	0.18918699
64	0x3cb30f8d	0.021858001
65	0x3e28b85d	0.16476579
66	0x3d6dd54c	0.058064744
67	0xbb8a1eda	-0.0042151036
68	0xbd637e1c	-0.05554019
69	0x3e83af1d	0.25719538
70	0x3d7351ed	0.059404302
71	0xbd81ade2	-0.06331994
72	0xbd855f4f	-0.06512319
73	0xbd67b698	-0.05657062
74	0xbe4679c7	-0.19382392
75	0xbe3e3ed5	-0.18578656
76	0xbe456ba8	-0.19279349
77	0xbe9cb0fc	-0.30603778
78	0xbea33bbc	-0.3188151
79	0xbf0219ee	-0.50820816
80	0xbf100788	-0.5626149
81	0xbf261510	-0.6487589
82	0xbf08f5b8	-0.5349994
83	0xbf269c1f	-0.6508197
84	0xbf05b058	-0.52222204
85	0xbee0bfcb	-0.43896326
86	0xbeec9126	-0.4620449
87	0xbe1d8914	-0.15384322
88	0xbe7e8135	-0.24853976
89	0xbea2cfaf	-0.31799075
90	0xbe04362c	-0.1291129
91	0xbe0b7e02	-0.13622287
92	0xbe9a43b4	-0.30129778
93	0xbd0f8078	-0.035034627
94	0xbe0838a2	-0.13302854
95	0xbe859555	-0.26090494
96	0xbede6d87	-0.43442938
97	0xbe91d2bc	-0.2848109
98	0xbef20dc8	-0.4727614
99	0xbf12c5d8	-0.57333136
100	0xbececfbc	-0.40392864
101	0xbf063767	-0.5242829
102	0xbedd5f68	-0.43236852
103	0xbeed693f	-0.4636936
104	0xbf02a0fe	-0.51026905
105	0xbda8d360	-0.082434416
106	0xbdd818cd	-0.105516054
107	0xbe96fe54	-0.29490912
108	0x3eb76015	0.35815492
109	0x3d54a087	0.051910903
110	0xbd2c7993	-0.04210813
111	0x3ec9500e	0.3931889
112	0x3e175d2e	0.14781639
113	0x3c1bc782	0.009508016
114	0x3d6414b0	0.05568379
115	0x3decc607	0.11561208
116	0xbc40116c	-0.011722904
117	0x3dd87d92	0.10570826
118	0xbd28bfdc	-0.041198596
119	0xbdb6f61d	-0.08933661
120	0xbdcdba63	-0.10045316
121	0xbd7de210	-0.061983168
122	0x3d022f1e	0.031783216
123	0x3dc54fb1	0.096343406
124	0xbd4e245b	-0.05032764
125	0x3e19050d	0.14943333
126	0x3e83b3ac	0.25723016
127	0xbe300ff8	-0.17193592
128	0xbe83380a	-0.25628692
129	0x3da16fbf	0.07882642
130	0xbda8bfdc	-0.08239719
131	0xbe0887f8	-0.13333118
132	0xbd097f3b	-0.033568602
133	0xbe052690	-0.13002992
134	0xbe9d6f62	-0.3074904
135	0xbd72d83c	-0.05928825
136	0xbd15b54e	-0.03654986
137	0xbdca23fe	-0.09870146
138	0xbdec156a	-0.11527522
139	0xbd27ebec	-0.040996477
140	0xbc081e01	-0.008307935
141	0xbd557477	-0.052113023
142	0xbdfbd039	-0.12295575
143	0x3e503632	0.20333174
144	0xbeb57190	-0.35438204
145	0xbf0b4a6e	-0.54410446
146	0xbf724af2	-0.9464561
147	0xbf12cf86	-0.57347906
148	0xbf643803	-0.8914797
149	0xbf6dbd4a	-0.9286696
150	0xbef015c7	-0.46891615
151	0xbf0e41df	-0.5556926
152	0xbf3f60cf	-0.74757093
153	0xbd1e66a5	-0.03867211
154	0xbe650bf3	-0.2236784
155	0xbea83291	-0.3285108
156	0x3b16893e	0.0022969986
157	0x3e1ad040	0.15118504
158	0x3da80f3f	0.08206033
159	0x3e2bec49	0.16789354
160	0x3ec12c01	0.37728885
161	0x3f0a99d0	0.5414095
162	0xbf0c99ff	-0.5492248
163	0xbf51de12	-0.8197948
164	0xbf70c664	-0.9405272
165	0xbf059087	-0.52173656
166	0xbf34e445	-0.7066081
167	0xbf37ca0d	-0.7179268
168	0xbe72b4e9	-0.23701824
169	0xbe8549e2	-0.2603293
170	0xbea105c7	-0.3144972
171	0x3b520165	0.0032044288
172	0x3e1b80dd	0.15185876
173	0x3e5ab2bc	0.21357244
174	0x3e08ab4b	0.13346593
175	0x3e601453	0.21882753
176	0x3e6d0cad	0.23149367
177	0x3e8aab7a	0.2708395
178	0x3f097f3b	0.53709763
179	0x3f0a8827	0.54114
180	0xbc590adc	-0.013247218
181	0xbe53efea	-0.20696989
182	0xbe152803	-0.14566045
183	0x3cf8a3cc	0.030351542
184	0xbd585a3f	-0.05282044
185	0x3dded66c	0.108807415
186	0x3e971688	0.29509377
187	0x3ea26702	0.31719214
188	0x3e72044c	0.23634452
189	0x3da6675f	0.08125185
190	0x3e0b7f6a	0.13622823
191	0x3ef26e44	0.4734975
192	0xbda0552a	-0.07828744
193	0x3e876d63	0.26450643
194	0x3ecaf7ee	0.3964228
195	0xbde5993e	-0.11210869
196	0x3e9b80dd	0.30371752
197	0x3f0f7fc6	0.5605434
198	0x3e2d4d83	0.169241
199	0xbe364580	-0.1779995
200	0x3dde6c74	0.108605295
201	0x3e4108af	0.18850969
202	0x3d954b56	0.0728976
203	0x3e1f1742	0.15536216
204	0x3e250624	0.16115624
205	0x3b6037a6	0.0034212857
206	0x3e989b15	0.29805818
207	0xbc067621	-0.008206875
208	0xbd8fe9be	-0.07027005
209	0x3e759ab1	0.23984791
210	0xbe0314b8	-0.12800872
211	0x3d9db608	0.07700735
212	0x3e87d75b	0.2653149
213	0xbe0926ec	-0.13393754
214	0x3df29197	0.11844175
215	0x3f1f5de7	0.6225266
216	0xbf12c25b	-0.5732781
217	0x3e2d3094	0.16913062
218	0xbe36c0e2	-0.17847016
219	0xbdcc50b3	-0.0997633
220	0x3d9b8a58	0.07594746
221	0x3eaa0f51	0.3321481
222	0xbe32c10c	-0.17456454
223	0x3ea2526a	0.31703502
224	0x3f9f1ae5	1.2430083
225	0xbed6ec17	-0.41976997
226	0x3e0974d2	0.1342347
227	0x3f3ff829	0.7498804
228	0xbef07bbe	-0.46969408
229	0xbeb82500	-0.3596573
230	0xb9e37125	-0.00043381113
231	0x3dc92f6f	0.098235
232	0xbe071bdf	-0.13194226
233	0xbe8e26b7	-0.27763912
234	0xbe91b744	-0.28460133
235	0xbe8d055f	-0.2754316
236	0xbf2be2b8	-0.6714282
237	0x3ef186d5	0.4717318
238	0xbd8f31ce	-0.06991921
239	0x3ebdb578	0.37052512
240	0x3ee101f1	0.43946794
241	0x3ef04f3a	0.46935445
242	0x3f6b444e	0.919011
243	0x3dbd88f4	0.09254637
244	0x3e587cb9	0.21141328
245	0x3f287eaf	0.65818304
246	0xbe303b96	-0.1721023
247	0x3e518823	0.20462088
248	0xbe5cd597	-0.21565853
249	0x3efb702a	0.49109012
250	0xbe6101f1	-0.21973397
251	0xbe7a6514	-0.2445262
252	0x3ef77054	0.48327887
253	0xbcca670a	-0.024707336
254	0xbe8f4810	-0.27984667
255	0x3db9b5a2	0.09067847

model/conv2d_1/Conv2D f4 [8, 3, 3, 7]
0	0xbd872888	-0.065995276
1	0x3e81374d	0.25237504
2	0x3e8a3010	0.26989794
3	0x3d3e80da	0.0465096
4	0xbe65e2bc	-0.22449774
5	0xbf1541ba	-0.58303416
6	0xbe28b702	-0.16476062
7	0xbec1ffb2	-0.37890393
8	0x3bc99285	0.0061514997
9	0xbdae8a69	-0.085224934
10	0xbd888e78	-0.06667799
11	0xbe8a6bb8	-0.27035308
12	0xbef25a55	-0.47334543
13	0x3e203590	0.15645432
14	0xbd300e2d	-0.04298227
15	0x3d57e75e	0.052710883
16	0xbe1ad979	-0.15122022
17	0xbdf3fbed	-0.119132854
18	0xbebbb4fb	-0.36661515
19	0x3ed4a42f	0.41531512
20	0xbe06cf0c	-0.1316492
21	0x3de1cec0	0.110257626
22	0x3f6b5ca7	0.9193825
23	0x3ec294d6	0.38004178
24	0x3c8d9113	0.01728109
25	0xbeb15649	-0.34636143
26	0xbe869364	-0.26284325
27	0xbdfc5f8c	-0.123229116
28	0xbcaba0b6	-0.020950656
29	0x3d9e5850	0.07731688
30	0xbea7333f	-0.32656285
31	0xbd85691d	-0.065141894
32	0xbdf1e305	-0.11810879
33	0xbebb3dab	-0.36570486
34	0x3ec14cba	0.3775385
35	0x3e8a123c	0.26967037
36	0xbe907ac7	-0.28218672
37	0xbd971ef9	-0.073789544
38	0x3dba1363	0.09085729
39	0xbde1399c	-0.10997316
40	0x3d112dbe	0.035444014
41	0x3e24675f	0.16055058
42	0x3d5dd899	0.05416164
43	0x3f00ddd1	0.50338465
44	0x3e70b8be	0.23507974
45	0xbe47b545	-0.19502743
46	0xbecd4d04	-0.4009782
47	0x3e872888	0.2639811
48	0x3bed57ba	0.007243124
49	0x3c759d85	0.014991169
50	0x3e0d733f	0.13813494
51	0xbe029d3d	-0.12755294
52	0xbea15fd8	-0.31518435
53	0xbe03e559	-0.12880458
54	0x3d219b80	0.039454937
55	0x3e4cd5b4	0.20003396
56	0x3d59a6ca	0.053137578
57	0xbde334b0	-0.11094034
58	0xbd782dbc	-0.06059049
59	0x3c11c2e2	0.008896561
60	0xbde72ad7	-0.11287468
61	0x3ef07d16	0.46970433
62	0x3e1a4455	0.15065129
63	0x3de58274	0.112065226
64	0x3dbbf536	0.0917763
65	0x3e33b51f	0.17549561
66	0xbdd5757b	-0.10422798
67	0xbdd90f1f	-0.10598587
68	0xbb975b38	-0.0046190284
69	0x3df30299	0.1186573
70	0x3d927b2a	0.07152398
71	0xbd2d6841	-0.042335752
72	0xbc87fb0e	-0.016599204
73	0xbe6cb5bb	-0.231162
74	0x3d07fb0e	0.03319841
75	0x3d8f54bb	0.06998583
76	0xbc90618b	-0.017624637
77	0xbe475bbb	-0.19468586
78	0xbaa00e83	-0.0012211356
79	0xbe38352b	-0.17989032
80	0xbe289b67	-0.16465531
81	0xbdb941fb	-0.09045788
82	0xbd0774a6	-0.03307023
83	0xbe8847db	-0.2661732
84	0x3ead6841	0.33868602
85	0x3ebcdb9e	0.36886305
86	0x3ea9ce9e	0.3316545
87	0x3e344eba	0.17608157
88	0xbd764f6f	-0.060134348
89	0x3d6d0289	0.057863746
90	0x3dfbb5e4	0.12290552
91	0x3d2f81e0	0.042848468
92	0x3d1c2812	0.03812415
93	0x3db68ec0	0.08913946
94	0xbe1f01b3	-0.15527992
95	0xbe0007c5	-0.12502964
96	0x3e022164	0.1270805
97	0xbe3c8ed1	-0.18413855
98	0xbe80b493	-0.25137767
99	0xbda46828	-0.08027679
100	0xbe6d4f56	-0.23174796
101	0xbea78e97	-0.32725975
102	0xbe6bcf52	-0.23028305
103	0x3eb8cec7	0.3609526
104	0xbed8024f	-0.4218926
105	0x3e9147f4	0.28375208
106	0x3f028165	0.5097869
107	0x3ece689b	0.40314183
108	0x3d306849	0.043068204
109	0x3e9a34d9	0.30118445
110	0xbde8827c	-0.11353013
111	0x3e0fdb23	0.14048438
112	0x3bc24214	0.0059282873
113	0x3e850e39	0.25987414
114	0x3e8d6183	0.27613458
115	0xbe043b03	-0.12913136
116	0x3e464eec	0.19366044
117	0xbce7c27a	-0.028290976
118	0xbe028165	-0.12744673
119	0xbe7c75e6	-0.2465435
120	0x3de98f4c	0.11404285
121	0xbd481bbd	-0.04885458
122	0xbe81c163	-0.25342855
123	0xbd962801	-0.07331849
124	0x3dbc686a	0.09199603
125	0xbec3e87f	-0.38263318
126	0x3db556c4	0.0885444
127	0xbd8ff1e0	-0.07028556
128	0x3e41ba82	0.18918803
129	0x3e7e8ce1	0.24858429
130	0xbe1d75f5	-0.15377028
131	0x3eecc11a	0.46241075
132	0x3e4f21c2	0.20227721
133	0x3dde3984	0.10850814
134	0x3d45e55e	0.048314445
135	0x3dc8260c	0.09772882
136	0x3e365a46	0.17807874
137	0x3c8bc704	0.017062671
138	0x3c90820b	0.017640134
139	0x3e634b0c	0.22196597
140	0xbc1b1871	-0.0094662765
141	0xbeb7241c	-0.35769737
142	0xbe88d955	-0.2672831
143	0xbde792bd	-0.11307285
144	0xbe0a502c	-0.13507146
145	0xbf3332ec	-0.69999576
146	0xbdad9138	-0.08474964
147	0x3dbbdf24	0.0917342
148	0xbecd3794	-0.40081465
149	0x3dd7944f	0.105263345
150	0x3e37d11e	0.17950866
151	0x3e80f6f3	0.25188407
152	0x3f494663	0.78623027
153	0x3e4c173d	0.1993074
154	0xbd089faa	-0.033355393
155	0xbe9c559e	-0.3053407
156	0x3e92328e	0.28554195
157	0x3e5944d2	0.21217659
158	0x3ea1a0d0	0.31568003
159	0xbdb77a9d	-0.089589335
160	0x3ea5e882	0.32403952
161	0xbf03714c	-0.5134475
162	0xbd6a806c	-0.05725138
163	0xbdb693f1	-0.08914936
164	0x3e81309e	0.25232404
165	0x3ed2bc72	0.41159397
166	0xbf6b6718	-0.91954184
167	0x3e11bf38	0.142331
168	0x3be9266a	0.007115175
169	0xbe95cd3e	-0.2925815
170	0x3d3f2354	0.04666455
171	0xbd867bd1	-0.06566585
172	0x3dfcf934	0.12352219
173	0x3e9b521c	0.30336082
174	0x3d6bda6e	0.057581358
175	0x3dfcf934	0.12352219
176	0xbdbfed2a	-0.09371407
177	0x3d7a7eda	0.06115613
178	0xbb4d1abf	-0.003129646
179	0x3e924f63	0.28576192
180	0x3bc34e2f	0.005960248
181	0x3d1967ee	0.03745263
182	0xbc416402	-0.011803629
183	0xbc023420	-0.007946998
184	0xbda8f306	-0.08249478
185	0x3d7469d1	0.059671227
186	0x3e35e6f0	0.17763877
187	0xbee2f48b	-0.44327196
188	0xbcd6ada3	-0.026205843
189	0xbd62c49e	-0.05536329
190	0xbd6433d4	-0.05571349
191	0x3dadb1d6	0.08481185
192	0xbdda295b	-0.10652419
193	0x3d0cb3ff	0.034351345
194	0x3c450959	0.012026154
195	0x3c92f65f	0.017939745
196	0x3da66467	0.08124619
197	0xbc58db87	-0.013235933
198	0x3eb0d305	0.34535995
199	0xbd24d3cf	-0.04024106
200	0x3dc05792	0.09391703
201	0xbda36499	-0.07978172
202	0x3d9c7b50	0.076407075
203	0xbe19dfa8	-0.15026724
204	0xbdc5f307	-0.096654944
205	0x3e8587f2	0.2608028
206	0xbdb1372b	-0.086531006
207	0x3d7c10e0	0.06153953
208	0xbde45536	-0.11149065
209	0x3da4f531	0.08054579
210	0xbe364d19	-0.17802848
211	0xbdd7082b	-0.10499605
212	0xbcf5ad1e	-0.029989775
213	0x3d58133b	0.052752715
214	0x3e0e2335	0.13880618
215	0x3dc56d7f	0.09640025
216	0x3d3f4c82	0.046703823
217	0xbe9422d0	-0.2893281
218	0x3e9fbde1	0.31199554
219	0x3d1aeab8	0.0378215
220	0x3e4ed10e	0.20196936
221	0x3e484beb	0.1956021
222	0x3df75f18	0.120786846
223	0xbd018dc5	-0.031629343
224	0xbd94a858	-0.072586715
225	0x3e244e47	0.16045485
226	0x3d922e13	0.07137694
227	0x3e555632	0.20833662
228	0x3ed14b54	0.40877783
229	0x3c843a1e	0.016140994
230	0xbe1d64fd	-0.15370555
231	0xbe96178e	-0.29314846
232	0x3d23ea21	0.040018205
233	0xbd4b2a57	-0.049600925
234	0xbe0ba8ef	-0.13638662
235	0xbdaa0b1e	-0.08302902
236	0x3e390a23	0.18070273
237	0xbb2621a3	-0.002534964
238	0xbee1982c	-0.4406141
239	0xbd831e5d	-0.06402276
240	0xbe97eaea	-0.29671413
241	0xbe2a6f44	-0.16644007
242	0xbe3f6de4	-0.18694264
243	0x3dd9c535	0.106333174
244	0xbe00e6db	-0.12588064
245	0xbeb36ead	-0.35045376
246	0x3af3b860	0.0018594377
247	0xbe19be46	-0.1501399
248	0x3ce0cfe0	0.027442873
249	0xbdda6c1f	-0.10665154
250	0x3e0e875b	0.13918822
251	0xbdbd3662	-0.09238888
252	0xbe380c0b	-0.17973344
253	0x3d54c06a	0.051941313
254	0xbcf8b152	-0.03035799
255	0x3e728aab	0.2368571

model/conv2d_2/Conv2D f4 [7, 1, 1, 8]
0	0x3e52b071	0.2057512
1	0xbcd0dfeb	-0.025497397
2	0xbd8e09f0	-0.06935489
3	0xbf64d5af	-0.89388555
4	0xbf27f250	-0.65604115
5	0x3ef591a2	0.47962672
6	0x3ef6c751	0.4819894
7	0xbea8da93	-0.3297926
8	0xbf03a9d3	-0.51431006
9	0x3f50d869	0.81580216
10	0xbd885127	-0.066561036
11	0xbf028742	-0.5098764
12	0xbda8c761	-0.082411535
13	0x3d2eae55	0.042646725
14	0x3d021308	0.03175643
15	0x3cc73297	0.024316115
16	0x3c93b8e0	0.018032491
17	0xbec65068	-0.3873322
18	0x3d7d3187	0.06181481
19	0x3fa27496	1.2691829
20	0xbfa978a3	-1.323994
21	0xbf531937	-0.8246035
22	0x3f0de02a	0.5542017
23	0x3edd3b83	0.43209466
24	0xbeea9fd6	-0.4582507
25	0xbe3e2fca	-0.18572918
26	0xbea4123d	-0.32045165
27	0xbdfb8987	-0.12282091
28	0xbeac1cf6	-0.33615845
29	0x3e6b49a1	0.22977306
30	0xbe20ebba	-0.15714923
31	0xbf0bb264	-0.5456908
32	0xbe3d3883	-0.18478589
33	0xbe54bd5e	-0.20775363
34	0x3eb8073b	0.35943016
35	0x3e88883c	0.2666644
36	0x3e0308c3	0.12796311
37	0x3e819558	0.25309253
38	0x3d5e5c72	0.05428738
39	0xbed5cf0b	-0.41759524
40	0xbda77479	-0.08176512
41	0xbef8898c	-0.4854244
42	0xbd38f208	-0.045152694
43	0x3ec1952c	0.37809122
44	0x3f62f1b3	0.88650054
45	0x3e78c0d4	0.24292308
46	0xbf155114	-0.5832684
47	0xbe8893a6	-0.26675147
48	0x3d687018	0.056747526
49	0x3f2176b1	0.63071734
50	0xbf393b12	-0.7235576
51	0xbdc342ca	-0.095342234
52	0xbed24e5e	-0.41075414
53	0xbd67212d	-0.056428123
54	0xbe918bd6	-0.28427
55	0x3df011cb	0.11722144

model/conv2d_3/Conv2D f4 [8, 1, 1, 7]
0	0xbe79b90d	-0.24386998
1	0xbf4aaaff	-0.7916717
2	0xbe179c48	-0.1480571
3	0xbe98fa2b	-0.29878363
4	0x3f920bbf	1.1409835
5	0x3c0e6f0d	0.008693469
6	0xbf81a520	-1.0128517
7	0x3faf55b7	1.3698033
8	0x3f2194d5	0.63117725
9	0x3f6a6a03	0.9156801
10	0x3eff0043	0.49804887
11	0xbf40e4ee	-0.7534932
12	0xbecbcb10	-0.39803362
13	0x3de37e7f	0.111081116
14	0x3deae159	0.11468763
15	0x3f02cd35	0.5109437
16	0x3ec5c8df	0.38629815
17	0xbfc2cbc0	-1.521843
18	0xbefcd00f	-0.49377486
19	0x3e44e7d6	0.19229063
20	0x3f85434e	1.0411165
21	0xbf622ec3	-0.883526
22	0xbf261788	-0.64879656
23	0xbfd812ee	-1.6880777
24	0xbf05f0c9	-0.52320534
25	0x3ffe1f3e	1.9853284
26	0xbfc7a5b3	-1.5597442
27	0xbcc978f2	-0.024593804
28	0xbf39ecfb	-0.7262723
29	0x3e7f6ba3	0.24943404
30	0xbdfd7add	-0.1237695
31	0xbf216d3c	-0.63057303
32	0xbf85e547	-1.0460595
33	0x3f814972	1.0100539
34	0xbd2c95ac	-0.042134926
35	0xbec954ce	-0.39322513
36	0x3f6b4271	0.91898257
37	0xbd4d745a	-0.05015979
38	0x3fbf6f7f	1.4955901
39	0x3f8378d7	1.0271252
40	0x3f24edd8	0.6442542
41	0x3e24edd8	0.16106355
42	0x3f38f7de	0.72253215
43	0xbd589187	-0.05287316
44	0x3eb2ca6e	0.34920067
45	0x3f0ee9ef	0.55825704
46	0x3f8dd839	1.1081611
47	0xbf17f143	-0.5935251
48	0xbfa09d5c	-1.2548022
49	0x3f37b704	0.71763635
50	0x3e6d1816	0.2315372
51	0x3f5a9c03	0.85394305
52	0xbf5ec251	-0.87015253
53	0x3e93c872	0.28863865
54	0x3f55b491	0.8347865
55	0xbf186777	-0.59532875

model/conv2d_4/Conv2D f4 [7, 3, 3, 8]
0	0xbbdf75ea	-0.0068194764
1	0x3dce3548	0.10068756
2	0x3e4ee48b	0.2020437
3	0x3d2eda3a	0.042688586
4	0x3e2313b3	0.15925483
5	0x3db12e1f	0.08651375
6	0x3e3e9947	0.18613158
7	0x3e434112	0.19067791
8	0x3d9ddfb2	0.07708682
9	0x3e377a8b	0.1791784
10	0x3d1b68c0	0.037941694
11	0xbdb71162	-0.089388624
12	0x3db84cdb	0.08999034
13	0x3e4b783a	0.19870082
14	0x3e09f38a	0.13471809
15	0x3c041046	0.0080605205
16	0x3d7ca020	0.061676145
17	0x3e8c58f5	0.2741162
18	0xbceecbcf	-0.029149918
19	0xbe38d911	-0.18051554
20	0xbc73ffcf	-0.0148925325
21	0x3d2d9ec0	0.042387724
22	0x3cbdc6f7	0.023166163
23	0x3d90ddb2	0.07073535
24	0x3dc1e28b	0.09467038
25	0xbda4db62	-0.080496565
26	0x3df699cf	0.120410554
27	0x3db96547	0.0905252
28	0x3e00c703	0.12575917
29	0xbe31ba55	-0.17356236
30	0xbe0ecfe8	-0.13946497
31	0xbdb71162	-0.089388624
32	0x3dd66c70	0.104699016
33	0xbe7ce63b	-0.24697201
34	0x3da8f6f6	0.08250229
35	0x3e0cc21e	0.13745925
36	0x3e8467e8	0.25860524
37	0xbbc5b804	-0.0060338993
38	0xbe78a799	-0.24282683
39	0xbe690b99	-0.2275833
40	0x3dabb404	0.08383945
41	0xbd39f17d	-0.045396317
42	0xbd7eadea	-0.062177576
43	0x3dac1d2c	0.084040016
44	0x3d53d270	0.05171436
45	0xbdf0fca7	-0.117669396
46	0x3c8ab454	0.01693169
47	0xbca0bfcd	-0.019622708
48	0xbd73508c	-0.059402987
49	0x3ca9832c	0.02069243
50	0xbb748c05	-0.0037314903
51	0x3cc7c5ce	0.024386313
52	0xbc70d999	-0.014700317
53	0xbdbe0d11	-0.09279836
54	0xbdbe9947	-0.09306579
55	0xbd84f41e	-0.06491874
56	0x3e12192b	0.14267413
57	0xbd8f1603	-0.0698662
58	0x3db20070	0.0869149
59	0x3c902e6f	0.017600266
60	0xbdce7b63	-0.10082128
61	0xbdb40e3a	-0.08791776
62	0xbe258aa5	-0.1616617
63	0x3cf165cf	0.029467491
64	0x3e1123cd	0.14173813
65	0xbc94f946	-0.01818527
66	0x3e53af63	0.20672373
67	0x3da2646f	0.079293124
68	0xbe22646f	-0.15858625
69	0xbda9c947	-0.08290344
70	0x3e12c86f	0.14334272
71	0xbd8a39a5	-0.06749276
72	0xbde4bbdf	-0.11168646
73	0x3dac6ae8	0.08418828
74	0xbe485f27	-0.19567548
75	0x3eb91180	0.36146164
76	0xbd319ee8	-0.043364435
77	0xbe43c7db	-0.19119208
78	0xbd930399	-0.071784206
79	0xbd323b9d	-0.043513883
80	0x3d1a41f4	0.037660554
81	0x3dae4106	0.08508496
82	0x3e8f2320	0.27956486
83	0x3e4ee6af	0.20205186
84	0x3e591a74	0.21201497
85	0xbe4a83a0	-0.19776773
86	0xbd778187	-0.06042626
87	0xbc950df4	-0.01819513
88	0xbddabc56	-0.106804535
89	0xbd0009b5	-0.031259257
90	0x3e8ea08a	0.27856857
91	0x3e3b35f8	0.18282306
92	0x3cc1bd81	0.023649933
93	0xbc0bdf5c	-0.00853714
94	0xbc09bae3	-0.008406374
95	0x3dbb01bc	0.0913119
96	0xbdbb5016	-0.091461346
97	0xbda9a9ba	-0.08284326
98	0x3e1d517c	0.15363115
99	0x3eb72143	0.35767564
100	0xbdebabe0	-0.11507392
101	0xbe45d236	-0.1931847
102	0xbe00a66a	-0.12563482
103	0xbed22a74	-0.41048014
104	0x3e0eeee4	0.13958317
105	0x3cf85278	0.030312762
106	0xbe94a57b	-0.29032502
107	0x3e2631ba	0.16229907
108	0xbe41d79f	-0.18929909
109	0xbe7eda00	-0.24887848
110	0xba05da6a	-0.00051060936
111	0xbce9390d	-0.028469587
112	0xbd6487a3	-0.055793416
113	0xbd8ebaa8	-0.069691956
114	0x3e9c1813	0.30487117
115	0x3cbd4053	0.023101961
116	0x3e399416	0.18122897
117	0x3e0bdf5c	0.13659424
118	0x3ddcfaed	0.10790048
119	0x3d9b957c	0.07596871
120	0x3df9f45a	0.122048095
121	0xbe81dfd3	-0.25366077
122	0x3e1c3231	0.15253522
123	0x3e100e2f	0.1406791
124	0xbe148b5d	-0.14506288
125	0xbe7e7188	-0.24847996
126	0xbd27edba	-0.040998198
127	0xbe02626a	-0.12732854
128	0x3de3b6b2	0.11118831
129	0x3d9b957c	0.07596871
130	0x3e1e8ae6	0.15482673
131	0xbdfc672d	-0.12324367
132	0xbc5c29fc	-0.013437744
133	0xbde904d1	-0.11377872
134	0xbe478e36	-0.19487843
135	0x3e3b8453	0.18312196
136	0xbe803df1	-0.25047258
137	0x3d363634	0.044485286
138	0x3e8023d3	0.25027332
139	0x3d49e6eb	0.049292486
140	0x3dfda097	0.12384146
141	0x3e337506	0.1752511
142	0xbe736cd2	-0.2377198
143	0xbe0d9b5c	-0.13828796
144	0x3d7b4ebf	0.061354395
145	0xbe099cda	-0.1343874
146	0xbe24f283	-0.16108136
147	0xbd3faf19	-0.046797846
148	0x3cbc9bdd	0.02302354
149	0xbd9408b5	-0.07228223
150	0xbdca9e2a	-0.09893449
151	0xbc21df46	-0.009879893
152	0xbe37d345	-0.17951687
153	0xbd506d2b	-0.05088536
154	0xbeda818e	-0.42676967
155	0x3c808ee0	0.015693128
156	0xbd7a1c99	-0.06106243
157	0xbcb8d9af	-0.022564737
158	0xbdab18fc	-0.08354375
159	0xbda20b03	-0.079122566
160	0xbe0fc353	-0.14039354
161	0xbd5fcd5a	-0.054639198
162	0xbea740f0	-0.3266673
163	0x3be0ff80	0.0068663955
164	0xbd90f579	-0.0707807
165	0xbe08d80b	-0.13363664
166	0xbd2394a1	-0.039936665
167	0xbdbf2be4	-0.09334543
168	0xbcb75011	-0.022377046
169	0x3d1fe851	0.039039914
170	0xbdf2efb7	-0.11862128
171	0x3d038c3f	0.03211617
172	0xbdf68628	-0.12037307
173	0x3da49b0a	0.08037384
174	0xbd026ff7	-0.03184506
175	0xbd9fa6b7	-0.0779547
176	0xbe24f283	-0.16108136
177	0xbea805c0	-0.32816887
178	0xbc4cd6b9	-0.012502366
179	0xba07d1a1	-0.00051810784
180	0xbe138581	-0.14406396
181	0xbe1d5849	-0.1536571
182	0xbdbe7cf3	-0.09301176
183	0xbec42038	-0.3830583
184	0xbe18a590	-0.14906907
185	0xbd5e43bb	-0.05426381
186	0xbdf3ca64	-0.11903837
187	0xbe12ec6e	-0.14348003
188	0xbe538067	-0.2065445
189	0xbdc8659a	-0.09785004
190	0x3d3b69b7	0.045755114
191	0xbe60a807	-0.21939097
192	0x3dca9e2a	0.09893449
193	0x3e563c2b	0.2092139
194	0x3e9682df	0.29396722
195	0xbd7a4856	-0.06110414
196	0x3d1d426b	0.03839342
197	0xbe2f743d	-0.17134185
198	0xbcea3935	-0.028591732
199	0x3d0f81b9	0.035035823
200	0x3e6231a5	0.2208925
201	0x3ed63c2b	0.4184278
202	0x3f006324	0.50151277
203	0xbd7b2303	-0.061312687
204	0xbd0fad75	-0.03507753
205	0xbdf5ab7b	-0.11995598
206	0x3ef00836	0.46881264
207	0x3d646a35	0.05576535
208	0x3d84a886	0.06477456
209	0x3d110b57	0.035411205
210	0x3ea7da03	0.32783517
211	0x3de2b4da	0.11069651
212	0xbe361deb	-0.1778485
213	0x3e0919a5	0.13388689
214	0x3e73f620	0.23824358
215	0xbd6d20b6	-0.057892524
216	0xbc1c933e	-0.00955659
217	0x3dd6f3dc	0.10495731
218	0x3e23573c	0.15951246
219	0x3dea4868	0.11439592
220	0xbd4b5abb	-0.049647074
221	0x3d3c46dd	0.045966018
222	0x3e0a679b	0.13516085
223	0xbdfcd704	-0.123456985
224	0x3b5945af	0.0033153107
225	0xbe37277f	-0.1788616
226	0xbe8560fc	-0.26050556
227	0x3e0ed9c6	0.13950261
228	0xbe19de72	-0.15026262
229	0xbe4fcce5	-0.20293005
230	0x3d7dce71	0.061964456
231	0xbc99c5b4	-0.01877103
232	0xbe929ebe	-0.28636736
233	0xbd2d32ff	-0.04228496
234	0xbe572558	-0.2101034
235	0x3e1c4904	0.15262228
236	0xbd92d03a	-0.07168622
237	0xbdd281b1	-0.10278643
238	0xbd1da36a	-0.038485922
239	0xbe779ee8	-0.24181712
240	0x3e0c87f3	0.13723736
241	0xbd08f477	-0.033436265
242	0x3ed4708c	0.41492116
243	0x3b008bd9	0.0019614606
244	0xbe86d420	-0.26333714
245	0x3d8626ed	0.06550393
246	0x3e5d54e1	0.2161441
247	0xbe406ecd	-0.18792267
248	0xbeaf9d90	-0.34299898
249	0xbf13c7a7	-0.5772652
250	0xbe7ae829	-0.24502625
251	0x3e4b5abb	0.1985883
252	0x3d430adb	0.047617774
253	0xbd5f1240	-0.054460764
254	0xbc9cabfc	-0.019124977
255	0xbdf48723	-0.11939838

model/conv2d_5/Conv2D f4 [8, 1, 1, 8]
0	0xbf173610	-0.5906687
1	0xbf14961d	-0.58041555
2	0xbfac7014	-1.3471704
3	0xbe372a4d	-0.1788723
4	0x3d78c902	0.06073857
5	0x3f80289b	1.0012392
6	0xbf8d9ffe	-1.1064451
7	0x3f1c0119	0.60939175
8	0xbf5680c7	-0.8379025
9	0xbf559378	-0.83428144
10	0xbf5a6577	-0.85311073
11	0x3e49867c	0.19680208
12	0xbd7d6fa9	-0.061874066
13	0xbeb47b9f	-0.35250565
14	0xbf085bd2	-0.53265107
15	0x3e001bca	0.125106
16	0xbec72233	-0.3889328
17	0x3f4b9c10	0.7953501
18	0xbeaf8f51	-0.3428903
19	0xbf9d4202	-1.2285769
20	0x3e2d920c	0.16950244
21	0x3ed17a6b	0.4091371
22	0x3e3c7d97	0.18407284
23	0xbf43c070	-0.7646551
24	0x3e90aefa	0.28258497
25	0x3f356336	0.7085451
26	0x3eff7816	0.49896306
27	0x3f409cad	0.7523907
28	0xbf11781e	-0.5682391
29	0xbf84ac5e	-1.0365102
30	0x3f0efff5	0.5585931
31	0x3ec46da7	0.38364908
32	0x3f8e3fa1	1.1113168
33	0xbf1ce5bf	-0.61288065
34	0xbeabacc3	-0.33530244
35	0xbead794d	-0.33881608
36	0x3e87b1f1	0.26502946
37	0xbe56d9be	-0.209815
38	0x3f01767f	0.50571436
39	0xbf87f3bc	-1.0621257
40	0x3f1b47f8	0.6065669
41	0xbdc4d56e	-0.09611021
42	0xbe921553	-0.28531894
43	0xbf463d8e	-0.77437675
44	0xbe6a9955	-0.22910054
45	0xbe667cab	-0.22508495
46	0xbf0935c8	-0.5359769
47	0x3f0f982f	0.5609159
48	0x3ed77ddf	0.4208822
49	0xbdec2976	-0.115313455
50	0x3dedca1f	0.11610817
51	0x3f170a1c	0.589998
52	0x3f81f65a	1.0153306
53	0xbd81a305	-0.06329922
54	0x3e83822e	0.25685257
55	0x3f51f539	0.82014805
56	0x3f27cc1f	0.6554584
57	0xbfa5adee	-1.2943704
58	0x3f24e8c5	0.6441768
59	0x3e7ba5db	0.24574988
60	0xbe7e8934	-0.24857026
61	0x3f0c5c50	0.5482836
62	0xbcbd8de0	-0.02313894
63	0xbf067cf9	-0.52534443

model/conv2d_6/Conv2D f4 [9, 1, 1, 15]
0	0x3ed5c843	0.4175435
1	0x3e8fb183	0.28065118
2	0x3f32a02a	0.6977564
3	0x3d7eec4b	0.062237065
4	0x3e33ac40	0.17546177
5	0x3ddfa7f3	0.10920706
6	0xbe8f052b	-0.2793363
7	0x3bc2a215	0.005939732
8	0x3dbc598d	0.09196768
9	0x3e8ba775	0.27276197
10	0xbdb89c18	-0.090141475
11	0xbe29f2dd	-0.16596551
12	0x3eac0b0a	0.33602172
13	0x3e37b64e	0.17940637
14	0xbe0b8129	-0.1362349
15	0xbdb07671	-0.08616341
16	0x3f346883	0.7047197
17	0xbedcd102	-0.4312821
18	0x3e9af750	0.3026681
19	0xbe7c618e	-0.24646589
20	0xbf0f43f0	-0.5596304
21	0x3eba6508	0.36405206
22	0x3e02bf95	0.12768395
23	0x3dab4ae8	0.083638966
24	0xbf2c3eb7	-0.67283195
25	0x3e8d7f25	0.27636066
26	0xbe50d7f9	-0.20394887
27	0x3dc8ae2d	0.097988464
28	0x3d88539c	0.06656572
29	0xbeabb365	-0.33535305
30	0xbe82a6c9	-0.25517872
31	0x3e10a2d6	0.14124617
32	0xbe09735d	-0.13422914
33	0xbf36f55e	-0.7146815
34	0x3e851fb9	0.26000765
35	0x3ead392d	0.33832684
36	0xbefccdd9	-0.493758
37	0xbd71ada1	-0.059003476
38	0xbdb51aaa	-0.088429764
39	0x3ddbe3de	0.107368216
40	0x3e596aee	0.21232197
41	0x3d893806	0.06700139
42	0xbeb9bd6c	-0.3627733
43	0x3e380a47	0.1797267
44	0xbdbde981	-0.09273053
45	0x3f138d44	0.5763743
46	0xbe9e2d21	-0.30893806
47	0xbe50d35f	-0.20393132
48	0xbe2f0765	-0.17092665
49	0x3ebb35db	0.36564526
50	0xbebedfbd	-0.37280074
51	0xbeb5fd5f	-0.3554487
52	0x3e2ab961	0.16672279
53	0x3c9375d1	0.018000515
54	0xbeadbf22	-0.33934885
55	0x3eb818a8	0.3595631
56	0x3daea99b	0.085284434
57	0x3d58e2b7	0.052950587
58	0xbd211b6f	-0.039332803
59	0x3dc6049d	0.09668849
60	0xbf21d8d7	-0.63221496
61	0x3eb78ac0	0.35848045
62	0xbf602308	-0.87553453
63	0x3ebf20ea	0.373298
64	0x3efdd153	0.49573764
65	0x3dfc3872	0.123154536
66	0xbe268166	-0.16260299
67	0xbf08b108	-0.5339513
68	0x3f009293	0.50223655
69	0xbf0d1571	-0.5511084
70	0xbe175511	-0.14778544
71	0xbdc9829d	-0.09839366
72	0x3e241c15	0.16026337
73	0xbe314951	-0.17313124
74	0x3eb69c3d	0.35666075
75	0xbe322ab6	-0.17399105
76	0x3eae2baa	0.34017688
77	0xbda32e4b	-0.07967814
78	0xbe05a008	-0.13049328
79	0x3e6bf238	0.23041618
80	0x3d921d0b	0.07134446
81	0xbf02b610	-0.51059055
82	0xbecafa1b	-0.3964394
83	0xbf236e3c	-0.6384008
84	0xbde3c981	-0.11122418
85	0xbdd6f73d	-0.10496376
86	0x3e8320a1	0.2561083
87	0x3eaa174f	0.33220908
88	0x3eeef181	0.46668628
89	0x3e5ea013	0.21740751
90	0xbf0faac4	-0.5611994
91	0xbe5f1f53	-0.21789293
92	0x3ef99000	0.48742676
93	0xbf04335f	-0.51640886
94	0x3e3f8e5b	0.18706648
95	0x3dd20986	0.10255723
96	0x3d522c0e	0.051311545
97	0x3f0a8a79	0.5411754
98	0x3defd98c	0.11711416
99	0x3f1bced5	0.60862476
100	0xbf34e62b	-0.7066371
101	0x3e9f2e2f	0.31089923
102	0xbe6baafe	-0.23014447
103	0x3f6a51a7	0.9153084
104	0x3c4d735d	0.012539712
105	0xbdb7bf94	-0.089720875
106	0x3dad23e4	0.08454111
107	0x3e035ee0	0.1282916
108	0x3ea49da5	0.32151523
109	0x3e85bd0e	0.261208
110	0x3eed5b7f	0.46358868
111	0xbf146b5f	-0.57976335
112	0xbe3a7ec0	-0.18212414
113	0xbf0f96c4	-0.56089425
114	0x3e59d893	0.21274023
115	0xbe4717a0	-0.19442606
116	0xbe51b350	-0.20478559
117	0xbe10ea3a	-0.1415185
118	0xbf08c4f7	-0.53425545
119	0x3efbc113	0.4917074
120	0x3e0cba0a	0.13742843
121	0x3e067a27	0.13132535
122	0xbec02c8a	-0.3753398
123	0x3f0e4a03	0.5558168
124	0xbe582af7	-0.2111014
125	0x3ded4296	0.11584966
126	0xbe143431	-0.14473034
127	0x3d9231f1	0.07138432
128	0x3e30c5f6	0.17263016
129	0xbef786f9	-0.48345163
130	0x3f3bd255	0.73367816
131	0x3e4aaa11	0.19791438
132	0xbca17bf3	-0.019712424
133	0x3e168c26	0.147019
134	0x3f04ea2e	0.5191983

model/conv2d_7/Conv2D f4 [9, 3, 3, 9]
0	0xbdf61e86	-0.12017541
1	0x3d4c5599	0.04988632
2	0x3cb11c63	0.021619981
3	0x3cf8cf58	0.030372307
4	0x3d289061	0.041153315
5	0xbc814fc0	-0.015785098
6	0x3baf5eae	0.005351863
7	0x3d08e8a5	0.033424992
8	0x3a82d0ad	0.0009980403
9	0x3d4f7ff8	0.05065915
10	0xb9cd713a	-0.00039185007
11	0x3b9a7a38	0.0047142766
12	0x3e0d0621	0.13771869
13	0xbcd9c9af	-0.026585428
14	0x3db92ed7	0.09042137
15	0xbd16d64a	-0.036825456
16	0x3e1e3268	0.15448916
17	0x3db5b36e	0.08872114
18	0xbb29ac02	-0.0025889878
19	0xbadb0dd5	-0.0016712496
20	0x3d0f8e6e	0.03504794
21	0x3cb72019	0.022354173
22	0x3cb6cf0f	0.02231553
23	0x3dce6457	0.10077732
24	0xbd37489d	-0.044746984
25	0x3d00996a	0.031396307
26	0x3bc4bcb3	0.00600394
27	0xbe17dda9	-0.1483065
28	0x3cb11c63	0.021619981
29	0xbcefa142	-0.029251698
30	0xbd1aa2bc	-0.03775285
31	0x3e0a7dd5	0.13524564
32	0x3d713672	0.058889814
33	0xbd337c2b	-0.043819588
34	0x3c82d0ad	0.015968645
35	0xbcabbac0	-0.020963073
36	0x3d2816d3	0.041037392
37	0xbcffc62a	-0.031222422
38	0x3dd9c9af	0.10634171
39	0x3dae6b92	0.08516611
40	0x3d82571f	0.06364273
41	0x3e367e05	0.1782151
42	0xbd93d46f	-0.07218253
43	0x3e54e19b	0.20789187
44	0x3e138365	0.14405592
45	0xbc5d4518	-0.013505243
46	0xbd6bac4b	-0.05753736
47	0x3df40fc8	0.119170725
48	0xbb99afa0	-0.0046901256
49	0x3cbe16eb	0.023204288
50	0x3e16d64a	0.14730182
51	0xbdbfd49f	-0.09366726
52	0x3da3063a	0.07960172
53	0x3d09b33d	0.0336182
54	0xbe10be52	-0.14135101
55	0xbc7ddff0	-0.015495285
56	0xbd4a97e4	-0.04946126
57	0xbd736db5	-0.059430797
58	0x3d9b6d54	0.07589212
59	0xb9fc223c	-0.00048090692
60	0xbd3dc5e1	-0.04633129
61	0xbc98bc83	-0.018644577
62	0xbdd9279c	-0.10603258
63	0xbb165cbb	-0.0022943455
64	0xbdbd9d5c	-0.092585295
65	0x3d853075	0.06503383
66	0x3c34e8d6	0.011041841
67	0x3d404e2e	0.046949558
68	0x3d972753	0.073805474
69	0xbcce134d	-0.025155688
70	0x3e22131d	0.15827604
71	0x3d5de72b	0.054175537
72	0xbc8f14e0	-0.017466009
73	0xbde71540	-0.1128335
74	0x3d821a58	0.06352681
75	0xbce8d2f5	-0.028420905
76	0xbc1bbe5e	-0.009505836
77	0x3d80ea74	0.062947184
78	0xbd69c612	-0.05707366
79	0x3d8e0d81	0.069361694
80	0xbc017845	-0.00790221
81	0x3d36ef81	0.044662002
82	0xbe09562a	-0.13411775
83	0xbd5fad87	-0.054608848
84	0xbdb16782	-0.08662321
85	0x3c7c0232	0.015381383
86	0xbd77b107	-0.06047156
87	0xbd886469	-0.06659777
88	0x3d61296e	0.05497115
89	0x3d858f24	0.065214425
90	0x3de07cbf	0.109612934
91	0xbdaed750	-0.08537161
92	0x3cdb39d3	0.026760971
93	0xbe2acb38	-0.16679084
94	0x3dbf4cc4	0.09340814
95	0x3bebf45a	0.00720076
96	0x3c107c99	0.008818769
97	0x3c78803f	0.015167295
98	0x3dafeb9b	0.0858986
99	0xbe8d1d30	-0.2756133
100	0xbbf33d52	-0.0074230814
101	0xbde32f7a	-0.1109304
102	0xbe69419f	-0.22778939
103	0x3e4695bd	0.19393058
104	0xbd8171c7	-0.063205294
105	0x3d213720	0.039359212
106	0xbe39e74e	-0.18154642
107	0x3d7f619b	0.062348943
108	0x3e6d4db7	0.23174177
109	0xbd28187d	-0.04103898
110	0x3df1c16c	0.118044704
111	0xbde9a93b	-0.11409231
112	0x3b393aa0	0.0028263703
113	0x3da0cf84	0.078520805
114	0xbd09f194	-0.033677652
115	0xbd00b3d4	-0.031421497
116	0x3e00b3d4	0.12568599
117	0x3e94439f	0.2895784
118	0xbda0004c	-0.078125566
119	0x3d5fad87	0.054608848
120	0xbe388df1	-0.18022896
121	0x3d6604be	0.056156866
122	0x3d1cc36c	0.038272306
123	0x3d0cb594	0.034352854
124	0x3d9b8c98	0.075951755
125	0x3e2e0818	0.16995275
126	0xbe49d29d	-0.19709249
127	0xbd1a55c3	-0.037679445
128	0xbe080e11	-0.13286616
129	0xbeb3b2a0	-0.35097218
130	0x3e09225c	0.13392013
131	0xbe1014fd	-0.14070506
132	0xbd80914a	-0.06277712
133	0xbe794f77	-0.2434672
134	0x3db95d29	0.09050972
135	0x3e020d31	0.12700345
136	0x3e31f1a7	0.1737734
137	0x3e26e1a9	0.1629702
138	0xbd72f840	-0.05931878
139	0xbc350bfe	-0.011050222
140	0x3d8b39ad	0.0679811
141	0xbbd79556	-0.0065790815
142	0xbd1b24fc	-0.037877068
143	0x3c72b32d	0.014813227
144	0x3e489bc9	0.19590677
145	0x3d962722	0.07331683
146	0x3d9d701a	0.07687397
147	0xbcbdf367	-0.023187352
148	0x3c18b753	0.009321052
149	0x3d6986b1	0.057013217
150	0xbb3b40ac	-0.0028572483
151	0xbd123d93	-0.035703253
152	0x3e085324	0.13312966
153	0xbd8aaf87	-0.067717604
154	0xbd7c0232	-0.06152553
155	0xbe408398	-0.18800199
156	0xbe3fd6ea	-0.18734327
157	0x3ca2d590	0.019877225
158	0xbdcbb620	-0.09946847
159	0xbcd978d9	-0.026546882
160	0xbe1b8c98	-0.15190351
161	0x3c599b63	0.013281676
162	0x3d20f61f	0.03929722
163	0xbe6c35c1	-0.2306738
164	0x3b28b8af	0.0025744846
165	0x3daeb7c1	0.08531142
166	0xbd443bf3	-0.047908735
167	0xbd6c35c1	-0.05766845
168	0xbd6c900e	-0.05775457
169	0x3dbf4bc6	0.093406245
170	0x3d387a01	0.045038227
171	0x3d94bbc7	0.07262378
172	0xbe4c9502	-0.19978717
173	0x3c342054	0.010994036
174	0x3d9951a8	0.07486278
175	0xbda20504	-0.07911113
176	0xbcf90698	-0.030398652
177	0xbdd838da	-0.105577186
178	0x3dc7e108	0.09759718
179	0x3c9c4225	0.019074509
180	0x3cd6b18f	0.026207713
181	0xbda64098	-0.08117789
182	0x3d3ba6b1	0.045813266
183	0x3d6436fe	0.055716507
184	0xbc614682	-0.0137497205
185	0x3bf1f8a1	0.007384375
186	0xbe0c2685	-0.13686569
187	0xbcfb9cc8	-0.030714408
188	0xbb51a349	-0.0031988195
189	0x3e41c3dc	0.1892237
190	0xbe37a74f	-0.17934917
191	0x3de81846	0.11332755
192	0x3d84be42	0.06481601
193	0xbd6bbd5b	-0.05755363
194	0x3b37c569	0.002804125
195	0xbe4f494c	-0.20242804
196	0x3e2cb810	0.1686709
197	0x3e0af987	0.1357175
198	0x3d2e0328	0.04248348
199	0xbe075472	-0.13215807
200	0x3da93114	0.08261314
201	0xbd20f61f	-0.03929722
202	0xbdce1c4d	-0.10063992
203	0xbd4d499b	-0.050119024
204	0xbe97ac44	-0.29623616
205	0x3cd29414	0.025705375
206	0x3de1bee8	0.110227406
207	0xbdf9f763	-0.122053884
208	0x3c4d85ce	0.012544109
209	0x3d776133	0.06039543
210	0x3c3a5b99	0.011374378
211	0xbd26d717	-0.04073247
212	0x3c0e444f	0.008683278
213	0xbe7df6c5	-0.24801166
214	0xbdf88e32	-0.121364966
215	0xbd25aa19	-0.04044542
216	0x3e45870b	0.19289796
217	0xbd42b4a8	-0.04753557
218	0x3dc187a9	0.09449703
219	0xbd0cbd05	-0.03435995
220	0x3d1de789	0.038550887
221	0x3d817379	0.06320853
222	0xbe6f263e	-0.23354432
223	0x3dfdf6c5	0.12400583
224	0x3da0b9ec	0.07847962
225	0x3c0445dc	0.008073296
226	0xbc55485e	-0.013017742
227	0xbc71bc6e	-0.014754398
228	0xbe0536a7	-0.1300913
229	0xbc45ff71	-0.012084828
230	0x3d8f1702	0.0698681
231	0xbe94f7fa	-0.2909544
232	0xbd0554c1	-0.03255153
233	0x3d1a9cc0	0.037747145
234	0xbdd05831	-0.10173071
235	0x3cc36941	0.0238539
236	0xbd1b1526	-0.037861966
237	0xbd82dcaa	-0.063897446
238	0x3b86dc0c	0.004115587
239	0xbbfee790	-0.0077790692
240	0xbe3601eb	-0.17774169
241	0xbe1f32a1	-0.15546657
242	0xbe099055	-0.13433965
243	0x3d583ca6	0.052792214
244	0xbe70b0f7	-0.23505007
245	0x3da6e8d1	0.08149875
246	0xbdfe4228	-0.12414962
247	0xbcdc41be	-0.026886817
248	0xbd5b6b59	-0.05356917
249	0x3e310afd	0.17289348
250	0x3c963e5d	0.018340284
251	0xbd927997	-0.07152098
252	0xbe93bb2f	-0.28853747
253	0x3dbf47b2	0.09339847
254	0x3db23724	0.087019235
255	0xbe38ea4c	-0.18058127
