1.pothole_detection/Pothole_android/android/app/src/main/assets/Retrain80.tflite (tflite, 506856 bytes, 120 tensors)

model/tf.math.add/Add/y f4 [12]
1.4502703 1.8244295 2.254365 -0.81553555 1.985649 -1.8153973 1.0310112 2.0194864
1.6294888 2.186143 1.0395248 0.7968314
00000000: 75a2 b93f e886 e93f 8447 1040 f0c6 50bf
00000010: bf29 fe3f f05e e8bf 2df8 833f 443f 0140
00000020: 1793 d03f c4e9 0b40 260f 853f 25fd 4b3f

model/tf.math.add_1/Add/y f4 [16]
0.815193 0.17902415 0.7199038 0.30525947 0.9742623 1.3528658 0.613791 -0.47453922
1.4604442 0.19819245 1.4424126 0.6296884 0.35424018 0.61526424 1.1664697 0.70181304
00000000: 7db0 503f 1b52 373e 9e4b 383f f84a 9c3e
00000010: 4169 793f b52a ad3f 6821 1d3f cef6 f2be
00000020: d6ef ba3f f6f2 4a3e faa0 b83f 4233 213f
00000030: f85e b53e f581 1d3f e14e 953f 05aa 333f

model/tf.math.add_2/Add/y f4 [5]
0.7615291 -0.8825182 2.217071 1.2410107 0.46046978
00000000: 92f3 423f b6ec 61bf 7ee4 0d40 70d9 9e3f
00000010: b2c2 eb3e

model/tf.math.add_3/Add/y f4 [8]
-0.057971418 -0.46147412 2.3369014 1.5934783 1.5584295 -0.5468162 -1.7904508 0.40173787
00000000: 7073 6dbd 5646 ecbe cb8f 1540 19f7 cb3f
00000010: 9e7a c73f 25fc 0bbf 7e2d e5bf 96b0 cd3e

model/tf.math.add_4/Add/y f4 [5]
0.74372756 0.6290518 0.872816 0.85245323 0.60780436
00000000: ee64 3e3f 8a09 213f df70 5f3f 603a 5a3f
00000010: 1199 1b3f

model/tf.math.add_6/Add/y f4 [15]
1.2417051 2.0233345 0.070334926 -0.12545419 -1.3336482 -0.33553758 0.5608244 1.9052838
0.44010288 -0.10957153 -1.633188 1.9648974 0.61810917 -0.18420199 -0.3371826
00000000: 31f0 9e3f 507e 0140 c20b 903d 1077 00be
00000010: fcb4 aabf 95cb abbe 3092 0f3f 57e0 f33f
00000020: 2a55 e13e 0a67 e0bd 4e0c d1bf c281 fb3f
00000030: 673c 1e3f 729f 3cbe 33a3 acbe

model/tf.math.add_7/Add/y f4 [17]
2.942208 -0.71873647 -0.2848176 -0.14597192 0.24505877 -0.2702747 0.5564269 0.36922538
0.12267782 -0.36986607 0.08953163 1.0657778 -0.0023880005 -0.16945481 -0.12706846 0.7328963
0.6239348
00000000: 234d 3c40 1dff 37bf 9dd3 91be aa79 15be
00000010: b0f0 7a3e 7261 8abe fe71 0e3f 1c0b bd3e
00000020: 823e fb3d 165f bdbe 5c5c b73d 686b 883f
00000030: 0080 1cbb 9085 2dbe 3c1e 02be 189f 3b3f
00000040: 31ba 1f3f

model/tf.math.add_8/Add/y f4 [34]
0.24353969 0.10114654 0.11448118 0.069293335 -0.107259616 -0.1966481 0.75135624 0.88281435
-0.02892612 0.9968769 0.118065745 0.5837003 1.0609288 0.72271526 0.32944578 -0.23749697
0.6267818 0.45600668 0.052894726 0.9928409 0.12584174 0.842311 -0.117580205 0.04815141
0.36743256 0.27538943 -0.15143993 0.30535594 0.472201 1.0557619 0.011140406 0.28116417
-0.25065646 0.8867526
00000000: 7862 793e eb25 cf3d 1c75 ea3d aae9 8d3d
00000010: eeaa dbbd 1f5e 49be e258 403f 1f00 623f
00000020: 78f6 ecbc 5333 7f3f 74cc f13d 626d 153f
00000030: 84cc 873f de03 393f 1ead a83e 6832 73be
00000040: c674 203f b579 e93e 24a8 583d d22a 7e3f
00000050: a8dc 003e b2a1 573f e4cd f0bd 6a3a 453d
00000060: 1f20 bc3e d8ff 8c3e 1213 1bbe 9d57 9c3e
00000070: 54c4 f13e 3523 873f 4086 363c c0f4 8f3e
00000080: 0b56 80be 3802 633f

model/tf.math.add_16/Add/y f4 [17]
0.8804412 0.10479279 0.5903563 0.09897381 0.12368223 -0.1685611 -0.32386237 -0.0379398
0.56715965 1.3573519 0.115385704 0.44680738 0.1735298 -0.7959587 0.39510703 0.2483367
0.57447493
00000000: 9864 613f 9a9d d63d 9721 173f c8b2 ca3d
00000010: 1c4d fd3d 489b 2cbe 4ad1 a5be c466 1bbd
00000020: 6031 113f b5bd ad3f 574f ec3d f0c3 e43e
00000030: ccb1 313e f3c3 4bbf 784b ca3e fa4b 7e3e
00000040: ca10 133f

model/tf.math.add_9/Add/y f4 [5]
0.57503396 0.58095926 1.0057347 0.25671846 0.077100545
00000000: 6d35 133f bfb9 143f eabb 803f 9a70 833e
00000010: e4e6 9d3d

model/tf.math.add_10/Add/y f4 [23]
-0.69567215 -0.014704384 -0.364168 1.5728632 0.6629915 1.6910886 -0.10896826 -0.25857887
1.5019698 -1.0100464 -0.2475731 -0.02206523 -1.0340056 1.250811 1.3212765 0.024622068
0.3635031 0.88843936 -0.32871962 1.4780009 -1.4553841 -0.67175144 1.4979196
00000000: 9217 32bf a8ea 70bc 3a74 babe 9553 c93f
00000010: d0b9 293f 9775 d83f c02a dfbd 7364 84be
00000020: 8c40 c03f 3349 81bf cd83 7dbe 24c2 b4bc
00000030: 4c5a 84bf 931a a03f 971f a93f 38b4 c93c
00000040: 141d ba3e c370 633f f04d a8be 222f bd3f
00000050: 074a babf e7f7 2bbf d4bb bf3f

model/tf.math.add_11/Add/y f4 [5]
0.5082889 0.7291842 0.19978766 0.4646935 0.3176653
00000000: 391f 023f d1ab 3a3f 2395 4c3e 4eec ed3e
00000010: 07a5 a23e

model/tf.math.add_13/Add/y f4 [9]
1.2725435 -0.922205 -1.1535647 1.5879488 0.22207752 -0.60579336 0.027233005 0.38776794
1.1429005
00000000: b5e2 a23f a015 6cbf 02a8 93bf e841 cb3f
00000010: 4a68 633e 4615 1bbf c017 df3c 8589 c63e
00000020: 904a 923f

model/tf.math.add_14/Add/y f4 [5]
0.3872015 0.30462277 0.30625543 0.8912565 -0.1380706
00000000: 463f c63e 84f7 9b3e 83cd 9c3e 6329 643f
00000010: 6162 0dbe

model/tf.math.add_17/Add/y f4 [18]
0.795725 1.3474629 0.14283246 -0.50681525 0.9546982 0.7563851 -0.31191325 0.8646772
-0.32776713 1.374631 0.36610937 0.5938772 0.33531147 0.3820511 0.047238503 0.40334964
0.45617962 0.34809744
00000000: a2b4 4b3f aa79 ac3f ac42 123e a5be 01bf
00000010: 1a67 743f 74a2 413f 18b3 9fbe 7c5b 5d3f
00000020: 18d1 a7be e9f3 af3f b072 bb3e 5608 183f
00000030: f2ad ab3e 349c c33e 297d 413d d883 ce3e
00000040: 6090 e93e d439 b23e

model/tf.math.add_18/Add/y f4 [36]
0.5443813 0.910658 0.31612024 1.004027 -0.40684074 -0.22069012 0.28569144 -0.24127239
-0.188927 2.050737 -0.11540946 -0.2203908 -0.03542248 0.2695843 0.7160694 -0.30972147
0.16214886 -0.388008 -0.018416878 -0.90731835 -0.63544303 1.0239562 -0.512735 -0.857
0.7792765 0.29044324 0.041615188 0.8243289 -0.62030137 -0.045847222 -0.096359186 0.93086
0.27774355 -0.50572366 1.006373 0.3087014
00000000: 935c 0b3f e220 693f 83da a13e f583 803f
00000010: 6e4d d0be 97fc 61be 2646 923e 1c10 77be
00000020: 1476 41be 463f 0340 cc5b ecbd 20ae 61be
00000030: 2a17 11bd f406 8a3e 5350 373f d093 9ebe
00000040: 5a0a 263e fca8 c6be fede 96bc 0446 68bf
00000050: 65ac 22bf ff10 833f 9a42 03bf 5a64 5bbf
00000060: aa7e 473f fab4 943e b074 2a3d 3807 533f
00000070: 12cc 1ebf 4cca 3bbd f757 c5bd d74c 6e3f
00000080: 6734 8e3e 1b77 01bf d5d0 803f 1c0e 9e3e

model/tf.math.add_19/Add/y f4 [5]
0.7943196 0.19923922 0.3007629 0.29650265 0.018787593
00000000: 8858 4b3f 5e05 4c3e 98fd 993e 32cf 973e
00000010: 70e8 993c

model/tf.math.add_20/Add/y f4 [18]
1.1238519 -0.44226044 0.94218194 0.23446785 -0.60409385 0.3328626 -0.8868445 0.21869598
1.3748502 0.77433723 0.836792 -1.0777627 0.90235573 1.2209178 1.0484464 -0.55685276
0.9532354 -0.78217095
00000000: 61da 8f3f f66f e2be d632 713f 5718 703e
00000010: e5a5 1abf f76c aa3e 3e08 63bf d7f1 5f3e
00000020: 17fb af3f f73a 463f 0038 563f 21f4 89bf
00000030: c900 673f 0947 9c3f 7e33 863f e78d 0ebf
00000040: 3c07 743f 5b3c 48bf

model/tf.math.add_21/Add/y f4 [5]
-0.07588078 0.17955959 0.6988229 0.4106302 0.1624118
00000000: 6267 9bbd 78de 373e 0fe6 323f 1f3e d23e
00000010: 474f 263e

model/tf.math.add_23/Add/y f4 [25]
-0.20511493 -0.06934723 1.2328699 0.053126 1.4376981 0.98610985 -0.12896232 0.5311067
0.023246553 -0.19107473 1.3743662 0.932726 -0.22229752 1.5589643 -1.2253567 0.31521487
-0.94042194 0.0070834607 -0.78774166 0.524535 0.6629497 0.48364443 -0.21923995 0.63454616
0.6050598
00000000: a609 52be ec05 8ebd aece 9d3f a69a 593d
00000010: 7e06 b83f b271 7c3f b30e 04be 9cf6 073f
00000020: 8e6f be3c 18a9 43be 3beb af3f 22c7 6e3f
00000030: f6a1 63be 248c c73f 7dd8 9cbf d863 a13e
00000040: 7ebf 70bf 601c e83b 70a9 49bf ed47 063f
00000050: 12b7 293f 3ea0 f73e 7080 60be 9e71 223f
00000060: 33e5 1a3f

model/tf.math.add_24/Add/y f4 [5]
0.38911268 0.71631825 0.7700937 0.5105416 0.34179097
00000000: c739 c73e a260 373f dc24 453f dbb2 023f
00000010: 3aff ae3e

model/tf.math.add_26/Add/y f4 [9]
-0.6399595 -0.2801607 -0.1355849 0.6883036 -0.44300735 -0.27242738 0.61773837 0.52436614
0.64478
00000000: 63d4 23bf 3971 8fbe c5d6 0abe aa34 303f
00000010: dcd1 e2be 9a7b 8bbe 1a24 1e3f dc3c 063f
00000020: 4d10 253f

model/tf.math.add_27/Add/y f4 [5]
0.82997227 0.5785132 0.12014246 0.22381751 0.15083936
00000000: 1079 543f 7119 143f 400d f63d 6b30 653e
00000010: a275 1a3e

model/tf.math.add_29/Add/y f4 [18]
0.048093922 1.0166357 0.11114931 0.91112244 0.8629589 -0.23097384 -0.10563612 -0.034925748
0.031626493 0.15178195 0.422769 -0.3637929 0.93275017 -0.49799645 0.18323624 0.050257325
0.029868051 0.0016554296
00000000: 22fe 443d 1e21 823f 40a2 e33d 523f 693f
00000010: e0ea 5c3f 6884 6cbe c057 d8bd 4d0e 0fbd
00000020: c88a 013d ba6c 1b3e 2e75 d83e 1043 babe
00000030: b7c8 6e3f 64f9 febe 48a2 3b3e a0da 4d3d
00000040: d8ad f43c 00fb d83a

model/tf.math.add_30/Add/y f4 [18]
-0.2529241 -0.4040473 1.139641 1.1500599 0.098973714 -0.113823 1.0316336 0.93648213
0.042266876 0.7143435 0.78836197 0.13016498 0.13228604 0.6630538 0.67483497 -0.8321644
1.5283949 0.41991445
00000000: 457f 81be 4adf cebe c2df 913f 2a35 933f
00000010: bbb2 ca3d 081c e9bd 920c 843f 4bbd 6f3f
00000020: 0820 2d3d 37df 363f 17d2 493f f849 053e
00000030: fe75 073e e5bd 293f fcc1 2c3f ba08 55bf
00000040: 72a2 c33f 07ff d63e

model/tf.math.add_31/Add/y f4 [36]
0.545011 -0.60256815 1.5744256 0.21665704 -0.89637315 -0.34755507 0.38591203 0.50888675
-0.21730177 0.24408805 0.67434186 0.36214057 -0.47441784 0.32778004 1.2009345 -0.1373844
0.44815844 -0.034218937 -0.48191446 -0.97200036 -0.11443897 0.74733037 0.1656718 0.5236405
0.2455185 0.43802723 -1.0915474 0.25602147 -0.46195966 1.2507131 0.2235392 1.0093248
0.7766853 0.9407569 -0.22099057 0.45916536
00000000: d785 0b3f e841 1abf c786 c93f 58db 5d3e
00000010: b678 65bf bdf2 b1be 4396 c53e 6746 023f
00000020: 5b84 5ebe 38f2 793e aba1 2c3f 7d6a b93e
00000030: e5e6 f2be c9d2 a73e 39b8 993f 7fae 0cbe
00000040: 0675 e53e 2829 0cbd 7ebd f6be 04d5 78bf
00000050: fb5e eabd 0b51 3f3f dea5 293e 4e0d 063f
00000060: 3469 7b3e 1b45 e03e d3b7 8bbf 3f15 833e
00000070: fa85 ecbe 5e17 a03f 76e7 643e 8e31 813f
00000080: d9d4 463f 72d5 703f 5a4b 62be b917 eb3e

model/tf.math.add_32/Add/y f4 [18]
0.4045857 0.23994988 0.14946006 0.026417566 0.7761375 0.023482997 0.26032236 -0.24513154
0.08912829 -0.15614787 -0.30029225 0.36553892 -0.45595986 0.05700396 0.094470605 0.5607332
-0.30833602 0.11220104
00000000: db25 cf3e 6cb5 753e 0f0c 193e a769 d83c
00000010: f2b0 463f 6a5f c03c f948 853e c303 7bbe
00000020: e588 b63d 3ae5 1fbe e8bf 99be eb27 bb3e
00000030: 9273 e9be fc7c 693d ce79 c13d 368c 0f3f
00000040: 38de 9dbe a9c9 e53d

model/tf.math.add_33/Add/y f4 [9]
0.45398292 0.66624695 0.23049003 -0.11472352 0.43976346 0.040104955 -0.43288258 0.40667558
-0.13270846
00000000: 7370 e83e 298f 2a3f 9405 6c3e 2af4 eabd
00000010: ad28 e13e 1845 243d c9a2 ddbe c837 d03e
00000020: bae4 07be

model/tf.math.add_34/Add/y f4 [18]
0.47879973 0.18433622 0.004693024 -0.15207814 -0.4834047 -0.25374675 0.42227966 0.26753673
0.04448621 1.1710223 0.4901606 0.2977712 0.65682185 0.18334603 0.12721762 -0.4115122
0.34994385 0.32752725
00000000: 3d25 f53e a2c2 3c3e f0c7 993b 5fba 1bbe
00000010: d280 f7be 18eb 81be 0a35 d83e 93fa 883e
00000020: 2c37 363d 0fe4 953f 55f6 fa3e 7775 983e
00000030: 7a25 283f 10bf 3b3e 5645 023e bab1 d2be
00000040: d72b b33e a7b1 a73e

model/tf.math.add_36/Add/y f4 [22]
0.13506345 0.34624118 0.7105985 -0.09802234 0.37499136 0.44653103 -0.2658979 -0.077175274
0.5384739 -0.3329043 0.449883 0.5739157 0.44092444 0.09118661 -0.4696256 0.24809106
0.34595343 0.62504905 0.2952561 0.15684544 0.14522533 0.4339218
00000000: 134e 0a3e 8646 b13e c9e9 353f f0bf c8bd
00000010: defe bf3e b79f e43e c523 88be 120e 9ebd
00000020: 6dd9 093f 6f72 aabe 1157 e63e 24ec 123f
00000030: d9c0 e13e 0cc0 ba3d c472 f0be 950b 7e3e
00000040: cf20 b13e 3703 203f cf2b 973e 179c 203e
00000050: f3b5 143e 002b de3e

model/tf.math.add_37/Add/y f4 [18]
0.49970427 0.7806583 0.56033325 -0.121593475 -0.0655234 0.73123986 0.39142367 0.08401422
-0.43761995 0.6266017 0.34404117 -0.10019752 0.4121933 0.7858617 0.45969227 0.9279023
0.42136458 -0.02161561
00000000: 3dd9 ff3e 39d9 473f 0072 0f3f 0006 f9bd
00000010: 2231 86bd 8932 3b3f af68 c83e a60f ac3d
00000020: b90f e0be f868 203f 2a26 b03e 5b34 cdbd
00000030: 000b d33e 3b2e 493f c95c eb3e 018b 6d3f
00000040: 19bd d73e 3813 b1bc

model/tf.math.add_38/Add/y f4 [18]
0.23231192 0.6741924 0.47691733 0.0749442 0.34107605 -0.04820746 0.82289976 -0.14731877
1.3728334 0.06000513 0.67062926 1.2793747 0.28356487 0.5067245 0.63688236 0.18337998
0.9160353 -0.23653802
00000000: 2de3 6d3e e097 2c3f 822e f43e 587c 993d
00000010: 85a1 ae3e 3075 45bd 8fa9 523f bbda 16be
00000020: 01b9 af3f f0c7 753d 5cae 2b3f 8dc2 a33f
00000030: 6a2f 913e b2b8 013f b90a 233f f6c7 3b3e
00000040: 4a81 6a3f 0637 72be

model/tf.math.add_39/Add/y f4 [68]
0.81228 -0.7080797 -2.2628372 0.38141805 -1.2684989 0.22590977 -0.40145802 -0.57334405
-2.6799073 0.124301165 -1.4178033 0.15464383 0.20172738 2.7520735 -1.3312916 -0.15367149
-1.683596 -1.0544873 2.209905 1.585559 0.43207708 -1.0017974 -2.1026163 -3.1456246
0.6079734 0.11384943 2.1950665 0.041020647 0.4956198 -0.65641737 2.95776 -1.1856078
2.2439394 -2.1032956 -1.6913689 0.2934725 2.066014 0.47485083 -1.6535296 -1.416691
-1.0217787 1.6697485 0.19299358 -1.2416351 -1.830611 -0.18771411 -0.2479432 -0.40236288
1.7706109 -1.8377725 0.22218534 0.037791513 -0.31376043 1.8449197 -0.2624879 -2.0446827
2.2930582 -0.49306107 1.5890069 1.1283033 -0.47115782 1.6803925 1.5977252 0.20703596
1.7785276 -0.14670323 -1.5222825 0.017412089
00000000: 95f1 4f3f b644 35bf 53d2 10c0 3a49 c33e
00000010: 2c5e a2bf e454 673e e88b cdbe adc6 12bf
00000020: 9a83 2bc0 9c91 fe3d 947a b5bf f45a 1e3e
00000030: 9f91 4e3e f921 3040 c367 aabf 0f5c 1dbe
00000040: 1380 d7bf 71f9 86bf 156f 0d40 99f3 ca3f
00000050: 3539 dd3e e63a 80bf 4491 06c0 ea51 49c0
00000060: 25a4 1b3f e429 e93d f87b 0c40 4405 283d
00000070: e1c1 fd3e f80a 28bf f14b 3d40 ffc1 97bf
00000080: b49c 0f40 659c 06c0 c77e d8bf 0742 963e
00000090: 9339 0440 a61f f33e dca6 d3bf 2156 b5bf
000000a0: a5c9 82bf 52ba d53f 1ca0 453e e6ed 9ebf
000000b0: 7651 eabf 2138 40be d2e4 7dbe 8202 cebe
000000c0: 61a3 e23f 213c ebbf 8e84 633e 46cb 1a3d
000000d0: 35a5 a0be 5426 ec3f d064 86be 15dc 02c0
000000e0: 77c1 1240 8072 fcbe 9464 cb3f 3e6c 903f
000000f0: 993b f1be 1a17 d73f 4282 cc3f 3c01 543e
00000100: cba6 e33f 5f39 16be 27da c2bf cca3 8e3c

model/tf.math.add_40/Add/y f4 [34]
0.38963684 0.7814152 -0.074679054 0.86519563 -0.022404041 -0.000934707 -0.15469682 0.4849984
0.35907176 0.50886375 0.59531885 0.2010097 0.85680246 -0.26710933 0.10076687 0.2706919
-0.38620245 -0.709708 0.5895316 -0.07209334 0.103315726 0.09332621 0.32723945 -0.9112553
0.16210806 0.2028614 -0.29390237 0.13445799 0.8805671 -0.6548352 0.51143515 0.08523537
-0.037076417 0.42338088
00000000: 7b7e c73e d40a 483f 55f1 98bd 767d 5d3f
00000010: ae88 b7bc 2007 75ba d868 1ebe b651 f83e
00000020: 41d8 b73e e544 023f d166 183f 7dd5 4d3e
00000030: 6857 5b3f 8ec2 88be dc5e ce3d 2198 8a3e
00000040: 54bc c5be 6caf 35bf 8beb 163f aca5 93bd
00000050: 3297 d33d d021 bf3d ee8b a73e 0748 69bf
00000060: a8ff 253e e6ba 4f3e 5f7a 96be 5baf 093e
00000070: d86c 613f 48a3 27bf 6aed 023f e28f ae3d
00000080: 71dd 17bd 61c5 d83e

model/tf.math.add_41/Add/y f4 [18]
0.39888948 -0.1164936 0.27798128 1.1432102 0.5361473 -0.36705118 0.038379207 0.37809545
0.6254678 1.1428882 0.435803 -0.6957071 0.57864106 -0.049431354 0.7171471 -0.14151981
-0.5044447 -0.6584277
00000000: 3e3b cc3e 3294 eebd 9053 8e3e b654 923f
00000010: f340 093f 22ee bbbe 8433 1d3d ba95 c13e
00000020: a81e 203f 294a 923f 9221 df3e dc19 32bf
00000030: d221 143f 8878 4abd f496 373f 92ea 10be
00000040: 4a23 01bf b88e 28bf

model/tf.math.add_42/Add/y f4 [9]
0.7740531 -0.21218911 -0.11742331 0.2438935 -0.26376343 0.53362936 0.39438802 -0.22724503
0.38653606
00000000: 5828 463f 1a48 59be a27b f0bd 38bf 793e
00000010: 000c 87be ef9b 083f 3aed c93e ecb2 68be
00000020: 0ee8 c53e

model/tf.math.add_43/Add/y f4 [17]
0.69985586 0.8084415 -0.460536 1.1807251 0.63007784 -0.47445554 0.29735583 -0.48001283
-0.6062623 0.3059181 1.1743228 -0.053474158 0.6252527 -0.5971356 -0.19989203 0.2869312
-0.39689702
00000000: c129 333f 06f6 4e3f 60cb ebbe 0022 973f
00000010: c84c 213f d6eb f2be 063f 983e 3ec4 f5be
00000020: 0234 1bbf 4ca1 9c3e 3650 963f b807 5bbd
00000030: 9010 203f e1dd 18bf 7fb0 4cbe a5e8 923e
00000040: 1636 cbbe

model/tf.math.add_44/Add/y f4 [17]
0.8338623 0.76617455 0.04120949 -0.13520423 0.8206654 1.012201 0.049774036 0.9042541
0.5442585 -0.1705297 0.41330853 0.7287288 0.9018703 0.13149162 0.74941033 0.63378406
0.86636305
00000000: 0078 553f 0424 443f 48cb 283d fa72 0abe
00000010: 2117 523f cd8f 813f dcdf 4b3d 327d 673f
00000020: 8654 0b3f 569f 2ebe 2d9d d33e f88d 3a3f
00000030: f9e0 663f bda5 063e 5bd9 3f3f ac3f 223f
00000040: f8c9 5d3f

model/tf.math.add_45/Add/y f4 [64]
0.064458616 0.868358 0.37013882 0.4373982 0.08672765 0.10410836 -0.33220038 1.1452848
-0.25653255 0.50137234 -0.007759258 -0.1884852 0.6217283 0.5977406 0.27276838 0.014428914
0.3455138 -0.12651578 -0.3213613 0.67368275 0.5143265 0.4765239 -0.10730615 0.4031443
-0.09127019 -0.0022799983 1.0005839 0.25321168 1.6220148 1.2601509 0.7562544 0.44430318
1.0611625 0.7231617 0.06683523 0.6049403 1.7718444 0.21015385 1.5968422 0.3979284
-0.6669447 0.31839034 -0.43942004 0.6722519 0.48631346 -0.7373893 -0.50424945 0.8161643
0.9802219 0.8628257 -0.4097333 0.73386866 0.42426208 0.8080318 0.50665474 0.29787037
1.2612396 0.5102751 0.6802561 0.519073 0.195129 0.7876684 -0.1752359 0.7446581
00000000: e102 843d b64c 5e3f d682 bd3e a8f2 df3e
00000010: 449e b13d c436 d53d 2b16 aabe b198 923f
00000020: 3c58 83be f059 003f 6041 febb 4402 41be
00000030: 9629 1f3f 8705 193f 4ca8 8b3e 4067 6c3c
00000040: 2fe7 b03e 5a8d 01be 7889 a4be 7976 2c3f
00000050: e7aa 033f f1fa f33e 54c3 dbbd ee68 ce3e
00000060: deeb babd 066c 15bb 2213 803f f6a4 813e
00000070: 2e9e cf3f a04c a13f e399 413f b57b e33e
00000080: 2cd4 873f 2021 393f e9e0 883d 5edd 1a3f
00000090: cccb e23f 9232 573e 5365 cc3f 45bd cb3e
000000a0: e3bc 2abf 0f04 a33e aafb e0be b318 2c3f
000000b0: 14fe f83e 8cc5 3cbf 7e16 01bf 25f0 503f
000000c0: d3ef 7a3f 25e2 5c3f 90c8 d1be d1de 3b3f
000000d0: e138 d93e 2cdb 4e3f 20b4 013f 7782 983e
000000e0: 4d70 a13f 64a1 023f 4425 2e3f f8e1 043f
000000f0: e6cf 473e a3a4 493f 0a71 33be eaa1 3e3f

model/tf.math.add_46/Add/y f4 [34]
0.15017286 1.2650883 0.64275503 -0.0032811463 0.44529057 0.43736652 -0.6027519 0.3574971
0.84156585 0.45580554 0.93194246 0.84752566 0.31534213 0.63049084 1.0054451 -0.32638437
0.54112196 1.1788005 -0.17404765 1.0616546 0.34773803 -0.82943034 0.44965962 0.31875783
0.09214537 -0.2520485 -0.14248356 -0.48048115 0.34412545 1.5994536 0.09033945 -0.18347746
0.6713503 0.82678723
00000000: eac6 193e 6aee a13f 988b 243f 8008 57bb
00000010: 20fd e33e 81ee df3e f34d 1abf dc09 b73e
00000020: dc70 573f 585f e93e c893 6e3f 71f7 583f
00000030: 8674 a13e d967 213f 6db2 803f da1b a7be
00000040: f886 0a3f efe2 963f 8c39 32be 4ce4 873f
00000050: b80a b23e 8c55 54bf c939 e63e 3a34 a33e
00000060: b6b6 bc3d 800c 81be 36e7 11be a001 f6be
00000070: 3631 b03e e5ba cc3f e403 b93d 84e1 3bbe
00000080: 9ddd 2b3f 54a8 533f

model/tf.math.add_47/Add/y f4 [16]
0.8105924 2.404581 0.5720917 0.6848169 0.67995226 -0.09368539 1.7891637 0.9058609
0.3397204 -0.1441037 2.6327455 0.8557002 0.4643516 1.5023963 0.06184917 1.0098689
00000000: fc82 4f3f a8e4 1940 9a74 123f 2950 2f3f
00000010: 5a11 2e3f 20de bfbd 5103 e53f 80e6 673f
00000020: d5ef ad3e ec8f 13be e77e 2840 2b0f 5b3f
00000030: 7ebf ed3e 864e c03f 8e55 7d3d 6243 813f

model/tf.math.add_48/Add/y f4 [9]
1.3319836 0.93075097 1.6539123 1.3189723 -0.6896734 1.3655043 -0.056167826 0.9212339
-0.0005689487
00000000: 707e aa3f b245 6e3f 66b3 d33f 16d4 a83f
00000010: 708e 30bf d8c8 ae3f 3c10 66bd fcd5 6b3f
00000020: 8025 15ba

model/tf.math.add_49/Add/y f4 [9]
0.3975993 0.18712473 0.53503096 0.5248955 0.755018 0.8563496 0.4832831 0.87662077
0.4228049
00000000: 2392 cb3e a09d 3f3e caf7 083f 8d5f 063f
00000010: dc48 413f ba39 5b3f e270 f73e 386a 603f
00000020: e279 d83e

model/tf.math.add_50/Add/y f4 [16]
0.53723305 1.093455 1.4759394 1.8952531 0.88144076 0.96182024 1.270743 0.52617997
1.6500967 1.6437201 0.18715835 0.30018684 1.642542 0.79210556 -0.20444915 0.1944353
00000000: 1b88 093f 55f6 8b3f 95eb bc3f a797 f23f
00000010: 1aa6 613f da39 763f b5a7 a23f bbb3 063f
00000020: 5e36 d33f 6c65 d23f 70a6 3f3e 17b2 993e
00000030: d13e d23f 6ec7 4a3f 1e5b 51be 0c1a 473e

model/tf.math.add_51/Add/y f4 [18]
-0.8909713 0.58758336 -0.016813338 1.6623875 -0.5709271 -0.079717636 -0.62304145 0.74230784
1.6148943 -0.34993297 0.01754272 -1.3012269 -1.0381927 -2.0085342 2.8648438 0.32672763
0.8652083 1.4944699
00000000: b216 64bf dd6b 163f 20bc 89bc 1dc9 d43f
00000010: 4728 12bf 0043 a3bd a57f 1fbf e307 3e3f
00000020: dbb4 ce3f 6a2a b3be c0b5 8f3c 9a8e a6bf
00000030: 80e3 84bf d38b 00c0 9a59 3740 d848 a73e
00000040: 4b7e 5d3f ca4a bf3f

model/tf.math.add_66/Add/y f4 [18]
0.16564941 0.14257812 0.5288086 1.0839844 -10.046875 4.1875 0.19348145 0.14257812
0.15527344 0.20056152 -10.203125 3.9765625 0.19335938 0.13977051 0.107666016 -0.28076172
-10.3359375 3.984375
00000000: 00a0 293e 0000 123e 0060 073f 00c0 8a3f
00000010: 00c0 20c1 0000 8640 0020 463e 0000 123e
00000020: 0000 1f3e 0060 4d3e 0040 23c1 0080 7e40
00000030: 0000 463e 0020 0f3e 0080 dc3d 00c0 8fbe
00000040: 0060 25c1 0000 7f40

model/tf.math.add_52/Add/y f4 [17]
1.5545039 1.4571869 0.7919536 0.64995605 0.42849576 0.024541557 0.5954648 0.40389758
1.2607728 0.7968417 1.2016516 1.1569996 -0.16407347 1.0327282 1.0855429 -0.38853014
0.03218749
00000000: fcf9 c63f 1a85 ba3f 79bd 4a3f 8563 263f
00000010: cc63 db3e 600b c93c 6270 183f aacb ce3e
00000020: 0161 a13f d1fd 4b3f b8cf 993f 9018 943f
00000030: e002 28be 7030 843f 12f3 8a3f 6ced c6be
00000040: 08d7 033d

model/tf.math.add_53/Add/y f4 [17]
-0.30430475 -0.6719645 0.1472896 -0.02954458 0.05724455 -0.17341673 -1.3855617 0.45857567
-0.11251144 -0.4180879 -0.00989835 0.42922968 0.32333952 -0.21982192 -0.35629812 0.1583333
-0.14478238
00000000: d5cd 9bbe de05 2cbf 16d3 163e 7a07 f2bc
00000010: 4379 6a3d 2894 31be 165a b1bf 6eca ea3e
00000020: 666c e6bd 9e0f d6be b02c 22bc fec3 db3e
00000030: c28c a53e ff18 61be b56c b6be 2022 223e
00000040: d541 14be

model/tf.math.add_54/Add/y f4 [8]
-0.0059397817 -0.082690984 -0.19364649 -0.1081087 -0.19108495 -0.55992585 -0.16807179 0.007754281
00000000: 80a2 c2bb e459 a9bd 444b 46be 1868 ddbd
00000010: c6ab 43be 4d57 0fbf 031b 2cbe a017 fe3b

model/tf.math.add_55/Add/y f4 [9]
0.51757675 0.38385868 0.33565858 0.3328433 0.11074515 0.49667358 0.46128225 0.1937058
0.2718563
00000000: e97f 043f 2089 c43e 71db ab3e 706a aa3e
00000010: 5ace e23d 004c fe3e 302d ec3e d05a 463e
00000020: c030 8b3e

model/tf.math.add_56/Add/y f4 [17]
0.8921456 0.8113797 1.1573423 0.36885947 0.75026023 0.30862343 0.8297709 0.38765955
0.6294728 1.1816816 0.53202754 0.20970207 -0.015086949 0.6674634 0.4665352 -0.5172429
-0.019514382
00000000: a763 643f 94b6 4f3f cb23 943f 26db bc3e
00000010: 0e11 403f e403 9e3e de6b 543f 507b c63e
00000020: 2125 213f 5841 973f f532 083f 24bc 563e
00000030: 402f 77bc e2de 2a3f b4dd ee3e 086a 04bf
00000040: a0dc 9fbc

model/tf.math.add_57/Add/y f4 [18]
-0.8142878 1.8583345 -0.24080946 0.88015896 -0.5314598 0.017724186 0.43648165 0.5184771
0.8500336 -0.6948164 -0.5366752 1.2036551 1.3363743 -0.29090065 -0.6166788 -1.1792948
-0.27519178 0.49641946
00000000: 2a75 50bf e8dd ed3f c196 76be 1952 613f
00000010: c00d 08bf 5032 913c 867a df3e eaba 043f
00000020: cd9b 593f 7ddf 31bf 8c63 09bf 5f11 9a3f
00000030: 500e ab3f eef0 94be a9de 1dbf 22f3 96bf
00000040: f0e5 8cbe b12a fe3e

model/tf.math.add_65/Add/y f4 [18]
0.07763672 -0.10662842 -0.16308594 0.56103516 -8.53125 4.1132812 0.07208252 -0.10455322
-0.03765869 -0.022872925 -8.5234375 4.1640625 0.07171631 -0.095825195 0.07165527 -0.3959961
-8.5703125 4.0234375
00000000: 0000 9f3d 0060 dabd 0000 27be 00a0 0f3f
00000010: 0080 08c1 00a0 8340 00a0 933d 0020 d6bd
00000020: 0040 1abd 0060 bbbc 0060 08c1 0040 8540
00000030: 00e0 923d 0040 c4bd 00c0 923d 00c0 cabe
00000040: 0020 09c1 00c0 8040

model/tf.math.add_58/Add/y f4 [18]
0.43091595 0.1425388 0.34930047 0.31776017 1.1759183 0.34860766 0.27465016 1.2432653
1.0206435 0.27329722 0.6958194 0.5784834 1.7212139 0.3101774 0.3088649 0.8001143
0.17788732 0.35741538
00000000: 04a1 dc3e b1f5 113e 83d7 b23e 76b1 a23e
00000010: 7e84 963f b47c b23e f29e 8c3e 5123 9f3f
00000020: 72a4 823f 9ded 8b3e 3821 323f 7d17 143f
00000030: bd50 dc3f 92cf 9e3e 8a23 9e3e 4ad4 4c3f
00000040: 1828 363e 26ff b63e

model/tf.math.add_59/Add/y f4 [18]
0.27655455 -0.012009107 -0.48575246 -0.055858605 0.36264098 -0.21195942 -0.78241706 0.016783968
-0.4911219 0.43903443 0.37598652 -0.079717234 -0.3169473 0.67075443 -0.088181615 -0.016902879
-0.321717 -0.43871033
00000000: 8f98 8d3e d8c1 44bc 8cb4 f8be fecb 64bd
00000010: 14ac b93e e40b 59be 7c4c 48bf 887e 893c
00000020: 5474 fbbe 1fc9 e03e 4e81 c03e ca42 a3bd
00000030: eb46 a2be 90b6 2b3f 9098 b4bd e877 8abc
00000040: 17b8 a4be a49e e0be

model/tf.math.add_60/Add/y f4 [9]
-0.32299238 0.024040848 -0.16737756 -0.18299566 -0.14901315 -0.16902535 0.23978946 -0.14351004
0.3795005
00000000: 425f a5be 50f1 c43c 0665 2bbe 3763 3bbe
00000010: e796 18be fb14 2dbe 5e8b 753e 4cf4 12be
00000020: e44d c23e

model/tf.math.add_61/Add/y f4 [128]
0.22183195 -0.14479265 0.039779153 0.09775475 -0.18239303 -0.08773346 -0.026297636 -0.21762942
-0.03158326 -0.14695622 -0.23972186 -0.5452527 0.08772018 0.4063875 -0.046468854 -0.060649015
-0.1635557 -0.1613397 -0.20355074 -0.07944863 -0.1031564 -0.22184609 0.029274799 0.42017695
-0.26259437 0.15765025 0.0055141784 0.20789576 0.1645284 0.53898966 -0.17020465 0.0672769
-0.22623003 0.22983819 -0.018519059 0.38184217 0.45596236 0.68036187 -0.31681094 0.5355599
-0.28159943 0.227801 -0.21022238 0.59244615 0.19409618 0.37694168 0.07791713 -0.2681293
-0.042846672 0.56303906 0.40728545 -0.23356728 0.65431756 -0.37635982 0.3122388 -0.30996373
-0.24555916 0.68305373 -0.17155662 -0.41953617 -0.21499926 -0.249545 -0.28271112 -0.30862382
-0.054579616 0.5919751 0.36886403 0.4359521 -0.23208123 -0.2576867 -0.2674277 0.23225836
-0.35470662 -0.07376005 0.55161214 -0.110710904 -0.42923993 0.016957037 -0.4881249 0.40009522
-0.0082465 -0.062438637 -0.1635113 0.6057087 0.035133354 -0.10875897 0.39430305 -0.0059020184
0.41945884 0.27119303 -0.23048341 0.4919709 -0.11697526 0.36619884 -0.06722361 -0.12697014
0.062891275 -0.07190041 0.65181386 -0.345875 0.18732974 -0.27275354 -0.13536492 0.23781005
-0.03140965 -0.009679321 0.58588356 0.16179965 -0.28627074 -0.28383303 -0.285986 -0.19238195
-0.052303992 -0.37640083 -0.093441784 0.51512975 0.26132962 0.59054613 -0.14422894 0.5377398
0.49643534 0.4725318 -0.27589008 -0.12534064 0.6961713 0.25284198 -0.048642017 -0.25532323
00000000: ea27 633e 8644 14be 77ef 223d a433 c83d
00000010: 3dc5 3abe 9aad b3bd 246e d7bc 3fda 5ebe
00000020: 735d 01bd b17b 16be a679 75be ae95 0bbf
00000030: a3a6 b33d 0612 d03e 2056 3ebd 1a6b 78bd
00000040: 257b 27be 3c36 25be 9b6f 50be f7b5 a2bd
00000050: aa43 d3bd 9f2b 63be b4d1 ef3c 6f21 d73e
00000060: c572 86be 116f 213e 48b0 b43b a0e2 543e
00000070: 227a 283e 3afb 093f 214a 2ebe 79c8 893d
00000080: d8a8 67be b45a 6b3e 48b5 97bc d180 c33e
00000090: e673 e93e 322c 2e3f 0b35 a2be 741a 093f
000000a0: cd2d 90be aa44 693e 8944 57be 8daa 173f
000000b0: 26c1 463e 80fe c03e 0493 9f3d 3e48 89be
000000c0: fe7f 2fbd 5423 103f b887 d03e 432c 6fbe
000000d0: 5b81 273f 3cb2 c0be c4dd 9f3e 91b3 9ebe
000000e0: dc73 7bbe 9cdc 2e3f 8aac 2fbe 72cd d6be
000000f0: c428 5cbe b988 7fbe 83bf 90be f103 9ebe
00000100: e08e 5fbd ae8b 173f bfdb bc3e 1d35 df3e
00000110: b4a6 6dbe 83ef 83be 49ec 88be 23d5 6d3e
00000120: 1b9c b5be 820f 97bd 7436 0d3f 66bc e2bd
00000130: 56c5 dbbe 7ce9 8a3c 82eb f9be 48d9 cc3e
00000140: 541c 07bc a8bf 7fbd 826f 27be ba0f 1b3f
00000150: fee7 0f3d 06bd debd 17e2 c93e b865 c1bb
00000160: 4fc3 d63e d0d9 8a3e d803 6cbe 9ce3 fb3e
00000170: ba90 efbd 6a7e bb3e 88ac 89bd 7604 02be
00000180: 24cd 803d 8640 93bd 46dd 263f 8716 b1be
00000190: 5ed3 3f3e 5aa6 8bbe 1a9d 0abe 7a84 733e
000001a0: 68a7 00bd 0496 1ebc 77fc 153f cfae 253e
000001b0: 1492 92be 9052 91be c26c 92be c6ff 44be
000001c0: b63c 56bd 9cb7 c0be 685e bfbd 8bdf 033f
000001d0: ffcc 853e 082e 173f c0b0 13be 51a9 093f
000001e0: c62c fe3e b0ef f13e 7741 8dbe 4c59 00be
000001f0: 4838 323f 8174 813e da3c 47bd bab9 82be

model/tf.math.add_62/Add/y f4 [17]
0.99690014 -0.063123465 0.17760158 -0.17791222 -0.17623788 0.17632827 0.42813873 -0.048872292
-0.5127623 0.14229007 0.5095027 0.0034283474 0.004110994 0.22848195 0.5410946 0.39012673
0.2933908
00000000: d934 7f3f e046 81bd 30dd 353e 9f2e 36be
00000010: b477 34be 668f 343e 0035 db3e 502e 48bd
00000020: 6444 03bf 7db4 113e c56e 023f 20ae 603b
00000030: 84b5 863b 2cf7 693e 2d85 0a3f b1be c73e
00000040: 5237 963e

model/tf.math.add_63/Add/y f4 [256]
0.1674919 1.1745135 0.32610276 -0.14939466 -0.4665655 0.5976989 -0.5829997 0.11326423
-0.3187722 0.069905326 -0.17915238 0.43160856 0.72945577 0.28665963 0.22828561 0.19532713
0.30283204 1.5725839 0.7304072 0.24558097 0.3683435 0.45583287 0.27252594 0.33527705
0.30156803 0.38554838 0.38516244 0.4176361 -0.43492866 -0.0065279007 0.444471 0.82262284
0.44710577 0.84883934 0.34219575 0.38234738 0.047662422 0.51536536 0.054564197 -0.17942244
0.36502606 0.17646822 0.44996914 -0.35337412 0.53298104 0.03485276 0.3364087 -0.3433104
0.045848936 0.24463928 0.18120827 0.4597435 0.820969 -0.035716653 -0.13702974 0.560429
-0.29706407 -0.1664823 -0.15089895 1.2081378 0.44268492 0.8574206 0.64627755 0.4164198
0.40723258 -0.06682038 0.34074005 0.093998805 0.3551973 1.0543399 0.15839939 0.25582176
1.1890751 0.76304215 0.6242328 -0.19038014 0.103012845 0.3549081 0.15159696 0.6609119
0.3048861 0.31927747 0.080283046 0.97185016 -0.05354145 0.08531806 0.01944044 0.16018903
0.50916237 -0.08402392 0.499427 0.58417654 -0.5005306 -0.25975966 -0.023487942 0.28292853
0.087680474 0.6084422 -0.10250679 0.24993607 0.27957067 0.9594428 -0.058394667 0.24497226
0.1657412 0.22702703 1.2238156 0.55371094 0.19470544 0.5700867 0.44710475 0.15606725
0.23095874 0.24942896 0.2067242 -0.10682225 0.44364157 0.03320858 0.14979863 0.80720234
0.35841495 0.14420527 0.30672896 1.0212445 0.04000312 -0.15802827 -0.59850067 0.14986166
0.2992552 0.2995382 0.38352048 0.27082935 0.31038132 0.5526036 0.33487734 -0.09900307
0.15027988 -0.4445241 0.12584114 0.45389587 0.32227704 0.44576842 -0.10068834 0.1515891
-0.3001271 -0.7093114 0.28836355 -0.0991237 0.04710453 0.62668854 -0.08918543 0.5374747
0.5850219 0.028340869 0.023391038 0.76536685 0.3525387 0.4837967 0.5810863 0.45568866
0.49454045 0.47303078 0.3663207 0.8524367 0.23322672 -0.119445756 0.25606084 0.4010492
0.62406 0.30813235 1.1931148 0.12666598 0.3898443 0.64307487 0.59299093 -0.48515683
0.25015995 0.07534151 0.5159462 0.09524068 0.79363537 0.37438852 0.5549843 -0.7126348
0.39307415 0.24891034 0.12306012 -0.13222352 0.35961384 0.7775637 0.22177018 0.28834254
-0.435835 0.39737839 -0.2214333 0.6744158 0.4938775 0.68729097 -0.18997343 1.368047
0.07768786 0.46563756 -0.26639122 0.42113835 0.3687045 -0.07524973 0.21973541 0.06476083
0.22854225 0.47742596 -0.14980672 0.772007 0.13718583 -0.5481269 0.102544785 0.2101557
0.14039333 0.03784538 0.6643211 0.47687 0.32772 0.13210419 0.7134795 1.0293298
0.6667478 -0.32546797 0.2470099 -0.4030766 0.30533206 1.6056474 -0.84112155 -0.21210375
0.0013077892 0.019230805 0.34406072 -0.003643155 0.13589847 -0.2912418 0.13079488 0.47348362
-0.25835156 0.25501585 -0.37781954 0.2645428 0.23071697 0.3878829 -0.06090966 0.62605196
-0.2361899 0.34863406 1.1199487 0.2548467 -0.37220165 0.63366985 -0.3410821 0.060042918
00000000: ff82 2b3e 7556 963f f1f6 a63e eafa 18be
00000010: ace1 eebe cc02 193f 783f 15bf 14f7 e73d
00000020: 1c36 a3be 862a 8f3d b973 37be ccfb dc3e
00000030: 9dbd 3a3f 0dc5 923e b4c3 693e d603 483e
00000040: cd0c 9b3e 6e4a c93f f7fb 3a3f 9479 7b3e
00000050: 8597 bc3e ed62 e93e 8588 8b3e 6fa9 ab3e
00000060: 2067 9a3e 9966 c53e 0334 c53e 66d4 d53e
00000070: f8ae debe 00e8 d5bb b491 e33e 6997 523f
00000080: 0ceb e43e 894d 593f 4834 af3e 09c3 c33e
00000090: ac39 433d fcee 033f b57e 5f3d 84ba 37be
000000a0: b2e4 ba3e 16b4 343e 5b62 e63e 74ed b4be
000000b0: 7271 083f c5c1 0e3d c33d ac3e 61c6 afbe
000000c0: 18cc 3b3d b882 7a3e a98e 393e 8063 eb3e
000000d0: 062b 523f a04b 12bd 8651 0cbe 4678 0f3f
000000e0: c818 98be 567a 2abe 4185 1abe 42a4 9a3f
000000f0: 99a7 e23e eb7f 5b3f 7272 253f fa34 d53e
00000100: ca80 d03e 20d9 88bd 7b75 ae3e 7282 c03d
00000110: 6cdc b53e 9cf4 863f 7333 223e 12fb 823e
00000120: 9d33 983f bb56 433f b9cd 1f3f 03f3 42be
00000130: 66f8 d23d 84b6 b53e 3c3c 1b3e 8631 293f
00000140: 081a 9c3e 5678 a33e 706b a43d 2ccb 783f
00000150: 484e 5bbd 3cbb ae3d 8f41 9f3c 9808 243e
00000160: 7758 023f bc14 acbd e5b4 ff3e 988c 153f
00000170: c622 00bf 38ff 84be c969 c0bc 02dc 903e
00000180: d291 b33d dec2 1b3f 14ef d1bd 3eef 7f3e
00000190: e323 8f3e 0b9e 753f 3f2f 6fbd 02da 7a3e
000001a0: 10b8 293e c679 683e fda5 9c3f 00c0 0d3f
000001b0: dd60 473e 34f1 113f eaea e43e 18d0 1f3e
000001c0: 7380 6c3e 4e6a 7f3e 82af 533e a0c5 dabd
000001d0: fd24 e33e b805 083d d064 193e d0a4 4e3f
000001e0: 2a82 b73e 8caa 133e 940b 9d3e 24b8 823f
000001f0: 50da 233d 2ad2 21be 5737 19bf 5675 193e
00000200: fa37 993e 125d 993e cc5c c43e 25aa 8a3e
00000210: 4dea 9e3e 6e77 0d3f 0b75 ab3e 1fc2 cabd
00000220: f8e2 193e aa98 e3be 80dc 003e 0a65 e83e
00000230: 7f01 a53e c23b e43e b035 cebd 2c3a 1b3e
00000240: 42aa 99be 6f95 35bf 63a4 933e 5e01 cbbd
00000250: aef0 403d a96e 203f daa6 b6bd f197 093f
00000260: ffc3 153f 1c2b e83c 909e bf3c 15ef 433f
00000270: f47f b43e 33b4 f73e 12c2 143f 0650 e93e
00000280: 6834 fd3e 1731 f23e 638e bb3e 4b39 5a3f
00000290: fcd2 6e3e fa9f f4bd 681a 833e 5256 cd3e
000002a0: 65c2 1f3f 86c3 9d3e fcb7 983f bab4 013e
000002b0: ac99 c73e 8ea0 243f 41ce 173f 7a66 f8be
000002c0: f714 803e a64c 9a3d 0d15 043f 8c0d c33d
000002d0: b02b 4b3f daaf bf3e 7313 0e3f 3c6f 36bf
000002e0: 0441 c93e 5ae2 7e3e f206 fc3d 9a65 07be
000002f0: 4e1f b83e 6a0e 473f b917 633e a2a1 933e
00000300: c425 dfbe 2e75 cb3e 69bf 62be 84a6 2c3f
00000310: 83dd fc3e 4df2 2f3f 6588 42be 2a1c af3f
00000320: d01a 9f3d 0c68 ee3e 6e64 88be 729f d73e
00000330: d6c6 bc3e 881c 9abd 5202 613e 53a1 843d
00000340: fb06 6a3e 2d71 f43e ef66 19be 40a2 453f
00000350: 717a 0c3e 0b52 0cbf 0003 d23d 0e33 573e
00000360: 45c3 0f3e c203 1b3d f310 2a3f 4e28 f43e
00000370: eaca a73e 5246 073e 98a6 363f 14c1 833f
00000380: fcaf 2a3f bda3 a6be 2af0 7c3e 0e60 cebe
00000390: 7c54 9c3e db85 cd3f be53 57bf ba31 59be
000003a0: 206a ab3a ec89 9d3c ba28 b03e 00c2 6ebb
000003b0: f828 0b3e a51d 95be 18ef 053e 726c f23e
000003c0: a846 84be 7091 823e 9071 c1be 2772 873e
000003d0: 1241 6c3e 9698 c63e 687c 79bd f144 203f
000003e0: c4db 71be 2a80 b23e 7b5a 8f3f 447b 823e
000003f0: 3791 bebe 3038 223f 50a2 aebe 90ef 753d

model/tf.math.add_64/Add/y f4 [18]
0.06854248 -0.010253906 -0.28320312 0.35742188 -6.0742188 4.0742188 0.06390381 0.013725281
0.04055786 -0.47485352 -6.1484375 4.140625 0.07110596 0.07269287 -0.6074219 -0.11859131
-6.5742188 4.0976562
00000000: 0060 8c3d 0000 28bc 0000 91be 0000 b73e
00000010: 0060 c2c0 0060 8240 00e0 823d 00e0 603c
00000020: 0020 263d 0020 f3be 00c0 c4c0 0080 8440
00000030: 00a0 913d 00e0 943d 0080 1bbf 00e0 f2bd
00000040: 0060 d2c0 0020 8340

model/conv2d/Conv2D f4 [12, 6, 6, 3]
0.051005892 0.109561995 0.25519723 -0.031081714 0.24932484 0.32231024 0.009332904 0.5046899
0.7516658 0.02166492 0.5281794 0.8315302 0.026635477 0.3718061 0.6046882 0.20133904
0.25133824 0.3035186 0.053270955 0.20100348 0.10310237 0.1912721 0.038631927 0.14202791
0.3238203 0.41341618 0.54227316 0.37985966 0.4446237 0.9355554 0.12315238 0.50368315
0.7140825 0.21761395 0.5043543 0.2843914 -0.23036543 -0.095384374 -0.13196096 -0.122816816
0.075040735 0.02650964 0.18976204 0.5003275 0.43925467 0.35905463 0.6422715 0.5385819
0.25150603 0.3429475 0.45200616 0.20133904 0.13271599 -0.015435994 -0.11467936 0.12566912
-0.082968466 -0.029194161 -0.035863515 0.11325321 0.20536582 0.20956038 0.3718061 0.31257886
0.03789788 0.3573768 -0.018613376 -0.12499799 -0.13212875 0.10981367 -0.21593612 -0.34898767
-0.13858837 -0.090938136 -0.19664113 -0.21996291 -0.22029847 -0.29512948 -0.31073326 -0.6218021
-0.61441964 -0.9536759 -0.78320885 -0.87649596 -0.9060257 -0.7865645 -0.732203 -0.50166976
-0.6811971 -0.7174381 -0.17466162 -0.16325241 -0.29680732 0.02776801 -0.13741389 -0.22130516
-0.5265016 -0.30301526 -0.5177769 -0.8597177 -0.61542636 -0.72482055 -0.73354524 -0.8308591
-0.8228055 -0.32734373 -0.41744295 -0.64495605 -0.1932571 -0.2832698 -0.32035577 0.017343286
-0.005602499 -0.18132994 -0.18412536 0.16353239 -0.056560777 -0.05758577 -0.0545108 -0.20499788
-0.16604829 0.036922913 0.084747985 0.15244387 0.07011859 0.25382465 -0.192698 -0.5426853
-0.683202 -0.21673867 -0.21096145 -0.37607792 -0.12495553 -0.09229563 -0.49758574 0.04442397
0.17965269 -0.10361711 0.14955527 0.30097416 0.14880982 0.18598898 0.11060567 0.37607792
-0.6463024 -0.7514104 -1.4006946 -0.5918848 -0.904227 -1.1218975 -0.29855144 -0.35222363
-0.855773 0.3367556 0.07435832 -0.34122828 0.37645066 0.5221855 0.1679119 0.40030494
0.59933925 0.6041846 -0.8818636 -1.1942058 -1.5117662 -0.56877595 -0.7983736 -1.0346802
-0.11880559 -0.19074121 -0.5374672 0.2346294 0.3388056 0.1085557 0.45695892 0.43235916
0.15533248 0.47820413 0.68543833 0.4342228 -0.13250317 -0.34234646 -0.4618043 0.06969928
-0.03279966 -0.06345616 0.47037694 0.4521135 0.030260483 0.34421006 0.30749682 0.44913173
0.27171537 0.5948666 0.48677677 0.022701185 0.4189411 0.5348581 0.30880135 -0.05800508
0.14247352 0.43198645 0.34756458 0.24059296 0.43720457 0.22531131 0.39210504 0.31476492
0.1786277 0.3630326 0.16623464 0.35949174 0.42453197 -0.10725116 0.122439645 0.6813384
-0.12653443 0.17230864 -0.12875256 0.3559096 -0.008368413 0.24056666 0.62269056 -0.53396523
-0.53033555 -0.04320319 -0.5206564 -0.3014645 0.27807328 -0.9945304 -0.70697963 0.9243567
-0.3871651 -1.124392 0.37123486 -0.29662493 0.24661611 0.10092507 -0.5557433 -0.25730348
-0.6827818 -0.98162484 -0.24338973 0.828372 0.22060345 -0.40148216 0.8372446 0.5484839
0.31295845 0.7622313 0.15163967 -0.74166316 -0.29843977 -0.115443766 0.3151766 -0.73117745
00000000: 8eeb 503d 0a62 e03d 36a9 823e 149f febc
00000010: 034f 7f3e d905 a53e 09e9 183c 5b33 013f
00000020: 2b6d 403f a17a b13c c436 073f 2adf 543f
00000030: a532 da3c 5e5d be3e d9cc 1a3f d22b 4e3e
00000040: 68af 803e ca66 9b3e a532 5a3d dbd3 4d3e
00000050: 5627 d33d d5dc 433e 833c 1e3d c46f 113e
00000060: c6cb a53e 49ab d33e 6ad2 0a3f f77c c23e
00000070: b8a5 e33e 8f80 6f3f 5137 fc3d 61f1 003f
00000080: 1cce 363f 31d6 5e3e 5d1d 013f c09b 913e
00000090: eae4 6bbe e258 c3bd c620 07be 6287 fbbd
000000a0: f5ae 993d bf2a d93c fb50 423e 7715 003f
000000b0: fde5 e03e 02d6 b73e e86b 243f 81e0 093f
000000c0: 66c5 803e d196 af3e 5a6d e73e d22b 4e3e
000000d0: b3e6 073e 40e7 7cbc 03dd eabd 68af 003e
000000e0: 5feb a9bd 9828 efbc 9fe5 12bd 4df1 e73d
000000f0: 6b4b 523e ff96 563e 5e5d be3e 560a a03e
00000100: cf3a 1b3d 18fa b63e 147b 98bc f2fe ffbd
00000110: c24c 07be fde5 e03d 5c1e 5dbe 83ae b2be
00000120: 1cea 0dbe c63d babd 4b5c 49be f53d 61be
00000130: ec95 61be 361b 97be 6e18 9fbe 6c2e 1fbf
00000140: 9b4a 1dbf 1b24 74bf 6080 48bf 0a62 60bf
00000150: 4df1 67bf 4b5c 49bf a871 3bbf 6e6d 00bf
00000160: ef62 2ebf 06aa 37bf 7fda 32be a42b 27be
00000170: 21f7 97be bd79 e33c 3ab6 0cbe d29d 62be
00000180: cfc8 06bf d124 9bbe 078d 04bf 7616 5cbf
00000190: 958c 1dbf d78d 39bf 9fc9 3bbf 2fb3 54bf
000001a0: 62a3 52bf 9999 a7be 15bb d5be d71b 25bf
000001b0: 30e5 45be bd08 91be ac05 a4be 8213 8e3c
000001c0: 2b95 b7bb 8eae 39be 5c8b 3cbe 0975 273e
000001d0: 46ac 67bd 0edf 6bbd b746 5fbd f7ea 51be
000001e0: 9008 2abe 7b3c 173d 5a90 ad3d 3f1a 1c3e
000001f0: 569a 8f3d 4ef5 813e a052 45be 6ced 0abf
00000200: 54e6 2ebf bef0 5dbe 4706 58be 498d c0be
00000210: afe8 ffbd 7e05 bdbd 8fc3 febe e9f5 353d
00000220: e0f6 373e 3535 d4bd 0425 193e 4919 9a3e
00000230: 9a61 183e e573 3e3e 3a85 e23d 498d c03e
00000240: 1374 25bf 6f5c 40bf f649 b3bf c385 17bf
00000250: 6c7b 67bf 569a 8fbf bcdb 98be a856 b4be
00000260: f013 5bbf 3b6b ac3e 2d49 983d 79b5 aebe
00000270: 24be c03e f3ad 053f 19f1 2b3e c5f4 cc3e
00000280: 4c6e 193f d8ab 1a3f d0c1 61bf bcdb 98bf
00000290: 8e81 c1bf 4d9b 11bf 3662 4cbf 6770 84bf
000002a0: 5850 f3bd aa51 43be 7397 09bf b042 703e
000002b0: ed77 ad3e 7352 de3d 85f6 e93e 2e5e dd3e
000002c0: 7a0f 1f3e 2cd7 f43e e378 2f3f 7352 de3e
000002d0: e9ae 07be 0948 afbe 9d71 ecbe 7fbe 8e3d
000002e0: f058 06bd 4ef5 81bd 3fd5 f03e 6c7b e73e
000002f0: d5e4 f73c 4d3c b03e 3970 9d3e 98f4 e53e
00000300: 471e 8b3e 2d49 183f ce3a f93e d6f7 b93c
00000310: 737f d63e 76ec 083f 361b 9e3e bc96 6dbd
00000320: 94e4 113e 542d dd3e fcf3 b13e 005e 763e
00000330: 47d9 df3e 02b8 663e fec1 c83e de28 a13e
00000340: 2eea 363e 69df b93e 6a39 2a3e 4d0f b83e
00000350: 415c d93e 7fa6 dbbd a3c1 fa3d 326c 2e3f
00000360: 3e92 01be ad71 303e b6d7 03be c839 b63e
00000370: ab1b 09bc 1b57 763e a668 1f3f f2b1 08bf
00000380: 12c4 07bf d4f5 30bd bd49 05bf 8e59 9abe
00000390: 9f5f 8e3e 8b99 7ebf 9efc 34bf a4a2 6c3f
000003a0: 813a c6be 14ec 8fbf 7f12 be3e 39df 97be
000003b0: ef88 7c3e ceb1 ce3d 3145 0ebf 48bd 83be
000003c0: caca 2ebf c44b 7bbf 283b 79be 3010 543f
000003d0: dfe5 613e 128f cdbe a955 563f 7169 0c3f
000003e0: 173c a03e 9721 433f 6e47 1b3e a3dd 3dbf
000003f0: 19cd 98be c86d ecbd d45e a13e 722e 3bbf

model/conv2d_1/Conv2D f4 [16, 3, 3, 12]
-0.035843544 -0.20418134 -0.011869008 0.2249951 -0.08402914 0.10879924 -0.0013183308 -0.009423176
-0.099682465 -0.0577109 -0.07482635 0.14208406 0.20555747 -0.06785976 -0.08544826 0.0013431922
-0.11929213 0.0074718846 0.008794247 0.010691783 -0.3122065 0.1353755 -0.028382411 -0.11223953
-0.27883568 -0.05212043 -0.10725111 -0.18353958 -0.079384744 -0.072676174 -0.13554752 -0.20332126
-0.13795571 0.18422765 -0.058312953 -0.0459279 -0.25268945 -0.21174999 -0.074697345 0.20263322
-0.14784656 -0.09607016 -0.11051939 0.096500196 -0.13331132 -0.060420133 0.21278207 0.20813768
-0.005993634 0.23290779 0.2167384 -0.020394482 0.2907047 -0.103208765 0.084674194 0.18336758
-0.08570628 0.14810458 0.35228592 0.1576514 0.109573305 -0.008224448 0.1506848 -0.1094873
0.14268611 -0.17330472 0.14096597 -0.3140987 -0.22585519 0.084244154 0.023522997 -0.1318492
-0.106477045 -0.055990756 -0.21501826 0.077793606 -0.14956671 -0.021835105 -0.0694509 -0.16057564
-0.053238522 -0.076460496 -0.0801158 0.06644064 -0.12557067 0.01848082 0.029694023 -0.11963616
0.0636024 -0.16203776 -0.08304005 0.032940798 -0.078954704 0.19231233 0.0671287 0.026877282
0.060291123 0.12797888 0.037628196 -0.13133316 -0.017835764 -0.09400599 0.086007304 0.03640259
-0.053023502 0.07168709 -0.102864735 0.15679131 0.19450602 -0.08996722 -0.050059102 0.09659811
-0.1364653 0.021570848 -0.044369638 0.18304522 -0.03518054 0.09733488 -0.12885205 -0.118046165
-0.13368195 -0.08882114 -0.042159345 0.0046278066 -0.08652899 -0.07343093 0.11616332 -0.038905296
-0.033543285 0.048708368 -0.007986739 0.14931776 -0.089230455 0.03640848 0.036060564 0.064016715
0.02494769 -0.010560302 0.05726303 -0.12574127 -0.12713294 -0.009936098 0.23641978 0.08423682
-0.025950508 0.46563563 0.15193737 -0.008094185 0.045433857 -0.12811528 0.07555937 0.25852272
-0.16470796 0.2141531 -0.063893914 -0.063157156 -0.20351093 0.05349734 0.21579035 -0.025868645
0.061888278 -0.14023098 0.121648125 -0.037411302 -0.064098574 -0.075600296 -0.07318535 0.21497172
-0.064016715 -0.092423104 0.022532737 -0.019585676 0.033666078 -0.07838363 0.08415496 0.017416311
-0.08362285 -0.14759864 0.09831723 0.09635252 -0.12557754 0.39556107 0.15905942 -0.106749095
0.17665993 -0.016894436 0.06504 0.12353097 -0.29961786 0.15504815 -0.12287607 -0.119519696
-0.15087314 0.015860919 0.08857555 -0.023453694 0.0012573615 -0.03112833 -0.03294978 -0.0444515
-0.16233394 -0.19401485 -0.15938687 0.18386386 -0.015758589 -0.13515548 -0.050018173 0.07973437
-0.031926494 -0.20498446 -0.1688011 -0.006149943 -0.07298069 -0.25623056 -0.07093412 -0.00974679
-0.018895214 0.15862231 0.17922372 -0.12496488 0.051291555 -0.030308645 0.20652269 -0.027108222
0.06985825 -0.08482182 -0.058031518 0.055403356 0.0762591 0.085923955 0.17752813 -0.16777849
-0.005304013 0.06600078 0.3618386 -0.14556628 0.09876803 -0.107500315 -0.23466946 0.1018201
0.1838018 -3.9988736e-05 -0.02905815 -0.1763412 -0.109704584 0.15887664 0.049511187 -0.20533578
-0.07884487 0.09639421 -0.25281227 -0.10512649 -0.30181476 -0.24789505 0.03234335 0.10707642
00000000: aed0 12bd ea14 51be 3a76 42bc 1e65 663e
00000010: 7817 acbd 23d2 de3d d7cb acba aa63 1abc
00000020: 5226 ccbd 4462 6cbd 8f3e 99bd 7c7e 113e
00000030: a87d 523e 0ffa 8abd 7fff aebd 0d0e b03a
00000040: 6f4f f4bd b6d6 f43b bf15 103c 972c 2f3c
00000050: 88d9 9fbe e09f 0a3e 3b82 e8bc d7dd e5bd
00000060: 8dc3 8ebe 3b7c 55bd 78a6 dbbd cdf1 3bbe
00000070: 7894 a2bd 3fd7 94bd f8cc 0abe 7333 50be
00000080: 4344 0dbe 2ca6 3c3e 90d9 6ebd e51e 3cbd
00000090: 8360 81be fdd4 58be ecfa 98bd 157f 4f3e
000000a0: 1765 17be 6fc0 c4bd fd57 e2bd e5a1 c53d
000000b0: c382 08be 1a7b 77bd 8be3 593e 0b22 553e
000000c0: 3f66 c4bb 617f 6e3e acf0 5d3e 5412 a7bc
000000d0: 3fd7 943e 1e5f d3bd aa69 ad3d b6c4 3b3e
000000e0: c686 afbd baa8 173e d25e b43e 5e6f 213e
000000f0: f867 e03d d6bf 06bc 1e4d 1a3e e13a e0bd
00000100: 4f1c 123e cb76 31be 6259 103e 8bd1 a0be
00000110: 9546 67be 3388 ac3d 4db3 c03c 7a03 07be
00000120: a310 dabd 9056 65bd bf2d 5cbe 4152 9f3d
00000130: 0428 19be 89df b2bc 463c 8ebd f16d 24be
00000140: a310 5abd 5297 9cbd c113 a4bd 0812 883d
00000150: 9995 00be 1765 973c e140 f33c ce03 f5bd
00000160: fa41 823d 3aed 25be e710 aabd eeec 063d
00000170: 01b3 a1bd 86ed 443e c67a 893d bf2d dc3c
00000180: d3f3 763d e50c 033e 0620 1a3d 337c 06be
00000190: 4f1c 92bc 3686 c0bd 9924 b03d e21a 153d
000001a0: 2c2f 59bd aed0 923d bfaa d2bd e78d 203e
000001b0: 962c 473e bc40 b8bd c60a 4dbd 3bd5 c53d
000001c0: 8fbd 0bbe 59b5 b03c f0bc 35bd 3570 3b3e
000001d0: 7819 10bd 8257 c73d cbf1 03be 30c2 f1bd
000001e0: ece3 08be dce7 b5bd 47af 2cbd dba4 973b
000001f0: 1c36 b1bd f562 96bd 09e7 ed3d 295b 1fbd
00000200: af64 09bd 6d82 473d d0da 02bc c1e6 183e
00000210: 75be b6bd 0f21 153d 3eb4 133d 321b 833d
00000220: 195f cc3c 1e05 2dbc a48c 6a3d 52c2 00be
00000230: 232f 02be 04cb 22bc 0718 723e 5b84 ac3d
00000240: 2996 d4bc cb67 ee3e 7895 1b3e 799d 04bc
00000250: da18 3a3d a730 03be dfbe 9a3d 175d 843e
00000260: 34a9 28be f34a 5b3e d0da 82bd 8a58 81bd
00000270: 2b65 50be 0720 5b3d 25f8 5c3e 7bea d3bc
00000280: 907e 7d3d b698 0fbe a722 f93d 983c 19bd
00000290: 1d46 83bd 54d4 9abd 33e2 95bd 8c21 5c3e
000002a0: 321b 83bd 5348 bdbd 9396 b83c 2472 a0bc
000002b0: 71e5 093d 9987 a0bd 7059 ac3d a7ac 8e3c
000002c0: 7542 abbd 1924 17be 8b5a c93d 7854 c53d
000002d0: 6697 00be fb86 ca3e 79e0 223e 459f dabd
000002e0: 57e6 343e 3366 8abc b133 853d cefd fc3d
000002f0: 8367 99be f1c4 1e3e 73a6 fbbd bec6 f4bd
00000300: 7d7e 1abe c2ee 813c 1967 b53d f621 c0bc
00000310: 0dce a43a d700 ffbc 59f6 06bd c712 36bd
00000320: de3a 26be d4ab 46be 5036 23be cf46 3c3e
00000330: 2818 81bc 3366 0abe dbdf 4cbd c64b a33d
00000340: 5bc5 02bd 72e7 51be 32da 2cbe 7685 c9bb
00000350: e676 95bd a730 83be e845 91bd 00b1 1fbc
00000360: 23ca 9abc e36d 223e 6c86 373e 96ed ffbd
00000370: 1817 523d d649 f8bc af7a 533e 1012 debc
00000380: d811 8f3d 10b7 adbd 75b2 6dbd a1ee 623d
00000390: bb2d 9c3d e6f8 af3d efc9 353e 20ce 2bbe
000003a0: 49cd adbb 6b2b 873d e942 b93e 540f 15be
000003b0: e546 ca3d 2029 dcbd 314d 70be 0e87 d03d
000003c0: 8a36 3c3e 94b9 27b8 5b0b eebc ca92 34be
000003d0: ccac e0bd 8fb0 223e 3ecc 4a3d 8b43 52be
000003e0: 6b79 a1bd 546a c53d 9c70 81be 8f4c d7bd
000003f0: 7787 9abe 33d8 7dbe 767a 043d e24a db3d

model/conv2d_2/Conv2D f4 [5, 1, 1, 16]
0.46687996 -0.16382515 -0.06700753 0.35354945 0.4262061 0.14548716 -0.35250655 -0.03878354
-0.5103349 0.2986224 -0.018935494 0.2275301 -0.25169104 -0.6260989 -0.0026154446 0.32799795
0.15052639 0.3768379 0.55366987 0.046582803 -0.3467744 0.015397117 -0.37224486 0.06404157
0.6033582 0.1790241 0.05412478 -0.17839777 -0.40523124 -0.6192251 0.66599053 0.22860804
0.042289387 -0.12140563 -0.093695045 -0.030803604 -0.36667684 0.036917295 0.059038732 0.0165956
-0.2807234 0.5249817 -0.29504895 -0.2452712 -0.4847543 0.23268206 0.085302286 -0.31632027
0.03466897 -0.017998535 0.03226179 0.032344792 -0.46926236 0.280672 -0.06906126 0.077417225
0.089757495 0.025316926 -0.052985698 -0.116098166 0.12605892 -0.14354558 0.04573648 -0.074373655
0.080930784 -0.09317616 0.38495 0.051820192 -0.6185027 0.33129302 0.27741337 -0.5539362
-0.05644004 0.00015274103 -0.34019873 0.29322103 0.48669794 0.2734058 -0.76589245 -0.15963514
00000000: e40a ef3e c8c1 27be 3e3b 89bd 6f04 b53e
00000010: b037 da3e 96fa 143e bd7b b4be 7ddb 1ebd
00000020: 4fa5 02bf 09e5 983e 9c1e 9bbc a7fd 683e
00000030: a6dd 80be 0448 20bf e167 2bbb 59ef a73e
00000040: 9723 1a3e e6f0 c03e 4fbd 0d3f 9ccd 3e3d
00000050: 6a8c b1be 3044 7c3c e196 bebe 3a28 833d
00000060: af75 1a3f 1852 373e f2b1 5d3d e8ad 36be
00000070: 787a cfbe 8985 1ebf 5b7e 2a3f 3a18 6a3e
00000080: a337 2d3d 84a3 f8bd 30e3 bfbd d757 fcbc
00000090: 11bd bbbe 9736 173d 99d2 713d 7ff3 873c
000000a0: faba 8fbe 3365 063f a810 97be 6028 7bbe
000000b0: b731 f8be 3544 6e3e f7b2 ae3d bbf4 a1be
000000c0: 0d01 0e3d aa71 93bc f024 043d f97b 043d
000000d0: 2843 f0be 3eb4 8f3e fd6f 8dbd ec8c 9e3d
000000e0: c7d2 b73d 7165 cf3c 8807 59bd e0c4 edbd
000000f0: 9715 013e 9dfd 12be 2d56 3b3d 3751 98bd
00000100: 0abf a53d 24d3 bebd 2b18 c53e 6941 543d
00000110: 3156 1ebf 3d9f a93e 2009 8e3e c3ce 0dbf
00000120: ac2d 67bd 1c29 2039 872e aebe 1121 963e
00000130: 7930 f93e d8fb 8b3e 8711 44bf 6577 23be

model/conv2d_3/Conv2D f4 [8, 1, 1, 5]
-1.491312 -0.15260175 -0.044785295 1.1228222 -0.007982564 0.40483093 0.9694279 1.6337658
-1.6048816 -0.28681165 0.9553864 0.3495601 -1.467451 -1.3327711 -0.0021500431 -1.0306426
-1.266462 -0.15888251 -1.1239194 -1.0365545 -0.49284396 -0.070488915 -0.56920004 -1.2911123
1.7532156 1.4403473 -0.6868468 0.5696818 0.052724212 -0.123153344 -0.06517165 0.2415028
1.4204543 1.0154628 0.33465084 0.25937167 0.8466088 -0.99305815 0.9568572 0.8099965
00000000: 50e3 bebf a243 1cbe c970 37bd a3b8 8f3f
00000010: 4dc9 02bc 0046 cf3e 6d2c 783f 3d1f d13f
00000020: c36c cdbf fad8 92be 3494 743f 8bf9 b23e
00000030: 6fd5 bbbf 3e98 aabf bde7 0cbb 19ec 83bf
00000040: 6d1b a2bf 19b2 22be 97dc 8fbf d1ad 84bf
00000050: 0b56 fcbe 7e5c 90bd 18b7 11bf 2b43 a5bf
00000060: 5e69 e03f 4d5d b83f 31d5 2fbf abd6 113f
00000070: 58f5 573d d237 fcbd b778 85bd 834c 773e
00000080: 72d1 b53f affa 813f 5b57 ab3e 5dcc 843e
00000090: 5bbb 583f 0f39 7ebf 98f4 743f ee5b 4f3f
